deepchem/models/tests/assets/dense_weights.npy (npy, 32896 bytes, 1 tensors)

array f4 [64, 128]
0	0x3c6ced80	0.014460921
1	0x3e0f4681	0.13991739
2	0xbdc7618d	-0.09735403
3	0xbb02e3c0	-0.0019972175
4	0x3da14122	0.07873751
5	0x3dac0082	0.08398534
6	0x3e2bbe77	0.16771875
7	0x3def6252	0.11688675
8	0xbcffbd40	-0.031218171
9	0xbe0e032d	-0.13868399
10	0x3ce3a5a0	0.027788937
11	0x3cb64fa0	0.022254765
12	0xbd05c08c	-0.03265433
13	0x3cb49f20	0.022048533
14	0x3da8c2f6	0.08240311
15	0x3d22e790	0.039771616
16	0x3c450430	0.012024924
17	0x3cebab68	0.028768256
18	0x3d8e54d0	0.069497705
19	0xbde63170	-0.11239898
20	0x3c7c6880	0.015405774
21	0xbb2f61c0	-0.0026761144
22	0xbdee3314	-0.11630836
23	0x3db4483e	0.088028416
24	0x3e0804bf	0.1328306
25	0x3dbf2e9e	0.093350634
26	0x3c2bf9b0	0.010496542
27	0xbd738244	-0.059450403
28	0x3e149ac7	0.14512168
29	0xbd1d5950	-0.038415253
30	0xbd99b355	-0.07504908
31	0xbd0b284c	-0.033973977
32	0xbe338ff3	-0.17535381
33	0x3ddd2182	0.10797407
34	0xbc9478a8	-0.01812394
35	0x3ce1c630	0.027560323
36	0xbe2c6efc	-0.16839212
37	0x3de842ae	0.11340843
38	0xbe2fdd77	-0.17174326
39	0xbdabe44b	-0.08393153
40	0xbe198b86	-0.1499463
41	0xbd70dff4	-0.05880733
42	0x3b30e6c0	0.0026993006
43	0xbe1c1eb7	-0.15246092
44	0x3d7a070c	0.061041877
45	0xbe040f5a	-0.12896481
46	0xbe17f95b	-0.14841215
47	0xbda8f1cf	-0.08249246
48	0x3e102cab	0.1407954
49	0xbe08617c	-0.13318437
50	0xbe2c1d6d	-0.168081
51	0x3d84e206	0.06488423
52	0xbbda7fa0	-0.006668046
53	0x3dec73d6	0.115455315
54	0x3ca3ce00	0.01999569
55	0x3e0e5671	0.13900162
56	0xbe3070c4	-0.17230517
57	0xbd93cb57	-0.07216518
58	0x3df10c02	0.117698684
59	0xbd3c2488	-0.045933276
60	0xbe1c85c9	-0.1528541
61	0x3dc8b446	0.098000094
62	0x3e10666d	0.14101572
63	0xbc9489e8	-0.018132165
64	0xbe10caa0	-0.14139795
65	0xbd838631	-0.06422079
66	0x3dc3dcd6	0.095636055
67	0xbdd8dec1	-0.10589362
68	0xbcdd1398	-0.026986882
69	0x3e131e27	0.14366971
70	0x3deac0be	0.11462544
71	0xbded3d7d	-0.115839936
72	0xbd70d80a	-0.05879978
73	0x3d68b2b4	0.05681105
74	0xbe267400	-0.16255188
75	0xbb1e0380	-0.0024110973
76	0x3cc6a478	0.024248347
77	0xbdf82827	-0.121170335
78	0x3c9ce500	0.019152164
79	0x3aa5ea80	0.0012658387
80	0xbc0805d0	-0.008302167
81	0x3d2439ec	0.0400943
82	0x3e14f4f9	0.14546575
83	0x3b8dc7c0	0.0043267906
84	0x3d7cf190	0.06175381
85	0x3dacd89e	0.08439754
86	0x3e1bea9b	0.15226214
87	0xbd281cf4	-0.041043237
88	0xbd87cb61	-0.06630588
89	0x3d4f8cf8	0.050671548
90	0x3c70f4a0	0.014706761
91	0x3d942cd4	0.07235113
92	0xbcfe6418	-0.031053588
93	0xbe0aa52e	-0.13539574
94	0x3dd8850a	0.1057225
95	0xbdfc4d68	-0.123194516
96	0x3df5c05e	0.11999582
97	0x3dc0b3e2	0.0940931
98	0x3d1c1d30	0.038113773
99	0x3db5ada2	0.088710085
100	0xbdac6ff8	-0.08419794
101	0x3d15090c	0.03638558
102	0xbe08730e	-0.1332514
103	0x3cd1f0d0	0.025627524
104	0xbe225f37	-0.15856634
105	0xbd976a44	-0.073933154
106	0xbd1257a0	-0.035728097
107	0xbda22beb	-0.07918533
108	0xbc98da80	-0.018658876
109	0x3e0c5a0f	0.1370623
110	0x3d8236ce	0.063581094
111	0x3ddbf186	0.10739426
112	0xbe0b42bc	-0.13599676
113	0xbb82aea0	-0.003988102
114	0xbda90aa0	-0.0825398
115	0xbd774cf2	-0.060376115
116	0x3dbb1906	0.09135632
117	0xb9eec200	-0.0004553944
118	0xbcf0a408	-0.029375091
119	0xbe23283c	-0.15933317
120	0xbd2280dc	-0.03967367
121	0xbe2ee9fd	-0.17081447
122	0x3d626f04	0.055281654
123	0x3d91a2c2	0.07111122
124	0xbe124d4a	-0.14287296
125	0x3c5c5ef0	0.013450369
126	0xbda33fc7	-0.07971149
127	0xb9c5e600	-0.0003774613
128	0x3c920098	0.017822549
129	0xbe14685a	-0.14492932
130	0xbc8116d0	-0.015757948
131	0x3d88c124	0.06677464
132	0x3e023613	0.1271594
133	0x3e3465dd	0.17616983
134	0x3d42f074	0.047592595
135	0xbe22694b	-0.15860479
136	0x3d5e5c14	0.05428703
137	0x3db3f236	0.087864324
138	0xbcdc53f8	-0.026895508
139	0x3c2fec50	0.010737494
140	0x3e2474f9	0.16060247
141	0x3d8b6568	0.06806451
142	0x3d589f34	0.052886203
143	0x3ddc333e	0.10751961
144	0x3d356878	0.044289082
145	0x3d37d8a0	0.044884324
146	0xbdacaef2	-0.08431806
147	0x3d8140c6	0.06311183
148	0x3d5bde88	0.05367902
149	0x3e0457d9	0.12924136
150	0x3d0b54ac	0.034016296
151	0x3d7e0c24	0.062023297
152	0xbd4ba18c	-0.04971461
153	0xbdfb5432	-0.12271918
154	0x3dbc509e	0.09195064
155	0xbd153f8c	-0.036437556
156	0x3e2595b1	0.16170384
157	0xbe29140d	-0.16511555
158	0xbcc40fb0	-0.023933262
159	0xbd4d8808	-0.050178558
160	0x3d76ca88	0.060251743
161	0x3dfa85f2	0.12232579
162	0x3d7e617c	0.062104687
163	0xbd21b52c	-0.03947942
164	0x3d744bc0	0.059642553
165	0x3c2ac460	0.010422796
166	0x3cdd86d8	0.027041838
167	0xbdb2f710	-0.0873853
168	0x3d94b0b0	0.07260263
169	0x3d557630	0.052114666
170	0xbd6e7766	-0.058219336
171	0x3e089d29	0.13341202
172	0xbddb7e54	-0.107174546
173	0xbe1370ce	-0.143985
174	0x3d2e69dc	0.042581424
175	0x3d73f7e0	0.059562564
176	0xbdcda0fc	-0.10040471
177	0xbde78dbc	-0.113063306
178	0x3da90e7a	0.08254714
179	0xbd77c51c	-0.060490713
180	0x3dc4ed8e	0.096156225
181	0x3d682de4	0.05668439
182	0xbd1e711c	-0.03868209
183	0xbd141908	-0.036156684
184	0x3e2cfb3d	0.16892715
185	0xbde84617	-0.113414936
186	0x3d59ba24	0.053156033
187	0x3dd892a2	0.10574843
188	0x3e310d93	0.17290334
189	0xbbdae2a0	-0.006679848
190	0xbdf77470	-0.120827556
191	0x3d5f0760	0.054450393
192	0x3d8211e0	0.06351066
193	0x3cf50170	0.029907912
194	0xbd61ebe6	-0.05515661
195	0xbcff3600	-0.031153679
196	0x3c051270	0.008122072
197	0x3e03f30b	0.12885682
198	0x3d1439d4	0.03618796
199	0xbdca63f2	-0.09882344
200	0x3e280691	0.16408755
201	0x3c4c3f00	0.012466192
202	0x3d911a7c	0.070851296
203	0xbd523b5c	-0.05132614
204	0x3e0b3cc7	0.13597403
205	0x3b3de580	0.0028975904
206	0x3bbffea0	0.005859211
207	0xbd92c5b6	-0.071666166
208	0xbe29343c	-0.16523832
209	0x3dd44e16	0.10366456
210	0xbe0860d8	-0.13318193
211	0x3dd859aa	0.10563977
212	0xbbf9db80	-0.0076250434
213	0xbe27cfc9	-0.16387857
214	0xbdcfda23	-0.10149028
215	0xbce9d350	-0.028543144
216	0x3d084188	0.03326562
217	0x3b635b40	0.003469184
218	0x3dda6f5e	0.10665773
219	0x3d1ce3cc	0.03830318
220	0xbd49ba7c	-0.04925011
221	0x3e1b86a1	0.15188076
222	0xbe085229	-0.13312592
223	0x3d928c14	0.07155624
224	0xbd5e2e7a	-0.054243542
225	0xbdcacc66	-0.09902267
226	0x3d8747ae	0.06605469
227	0x3d4047c8	0.046943456
228	0xbdbc1e2b	-0.091854416
229	0xbe178c90	-0.14799714
230	0xbe1c7722	-0.1527982
231	0xbd817b06	-0.06322293
232	0x3e10518b	0.14093606
233	0xbc411380	-0.011784434
234	0xbd0a0c7c	-0.033703312
235	0x3d8c0db8	0.06838554
236	0x3d0c8410	0.034305632
237	0x3e091fcf	0.1339104
238	0x3c16d310	0.009205595
239	0xbe1d0aff	-0.15336226
240	0xbcb97120	-0.02263695
241	0x3e07f23d	0.13276
242	0x3cdc9d10	0.026930362
243	0x3dc0389e	0.09385799
244	0x3d86bbb2	0.06578769
245	0x3e150157	0.14551292
246	0xbc3dd060	-0.011585325
247	0x3dee9ece	0.11651383
248	0xbdb295ec	-0.087200016
249	0xbd881d3a	-0.066461995
250	0xbe194e89	-0.14971365
251	0x3dfc2ff2	0.12313832
252	0x3be6e360	0.007046148
253	0x3e10df7d	0.14147754
254	0xbdad7380	-0.084692955
255	0x3de3039e	0.11084674
