deepchem/models/tests/assets/dense1_weights.npy (npy, 25728 bytes, 1 tensors)

array f4 [50, 128]
0.06343871 0.14403848 -0.07461654 -0.10723469 0.04321891 0.101411626 0.029367521 -0.043198287
-0.08566627 -0.012863427 -0.112260826 -0.096852094 -0.09920611 0.14362772 -0.14558586 0.092086926
0.13301642 0.00076055527 -0.08533224 -0.016167358 -0.044100672 -0.015660122 -0.13225219 -0.047731936
0.012725532 -0.16662493 0.06959386 -0.07001342 -0.119441904 -0.17697798 -0.102860235 0.09922458
-0.12941666 0.13084121 -0.13895601 -0.08477347 -0.041653633 0.16215028 0.044737875 -0.031807348
-0.017492145 0.019488066 -0.03394924 -0.121354654 0.001952365 -0.18058933 0.06727354 0.036762312
0.084330484 -0.11666517 -0.17653425 0.17265342 0.050496683 -0.157857 -0.1795119 0.15325864
0.12881924 -0.07641591 -0.17082831 -0.18141875 0.1023583 -0.14986712 0.09974374 -0.04999435
-0.093623005 0.1547931 0.038987294 0.100504234 0.115970746 -0.15537725 -0.07337404 -0.15415546
0.18000267 0.06384602 0.07564069 -0.13872826 -0.031737313 -0.17673232 0.06390008 0.05199626
-0.17332035 -0.028467119 -0.07422511 0.09904601 0.059736803 -0.120403245 0.13377766 -0.1515125
-0.16642244 0.1721795 -0.112271376 0.15392993 -0.119300954 0.05409792 0.16603054 0.05880089
-0.018561393 -0.057198927 0.073641405 -0.08654969 -0.1075049 0.12807424 0.111923024 -0.15143616
0.14223044 -0.046845272 0.07011558 0.12596045 -0.15978384 0.12332909 0.036793783 0.06654905
0.10622339 -0.16597246 -0.040021375 -0.061800957 0.0016494989 -0.1475215 0.013552278 0.10265647
0.07620518 -0.08768735 0.02279362 0.01375109 -0.07873373 -0.062363528 0.12882166 0.059399083
-0.16964701 -0.025939062 -0.015194982 -0.061641403 0.025173813 -0.124275096 0.05779876 -0.12484769
-0.031269148 -0.06495335 -0.1822696 0.06688024 0.15327121 -0.12621292 0.15823866 0.086380646
0.07059504 0.039530337 0.017299071 -0.027031675 0.104813084 0.17729424 -0.09728702 -0.05132495
-0.14028543 -0.13342601 0.062028706 -0.083405964 -0.15520427 0.078357056 0.10262255 -0.055234924
0.017341092 -0.009198189 0.1332451 0.097647265 0.03470069 -0.039469928 0.041675955 -0.10537127
-0.003466159 -0.15623066 0.03412482 0.08075382 0.07495354 -0.16375369 0.029937759 0.00046946108
-0.030878529 0.17158698 0.053464353 -0.034986883 0.033787757 -0.01178354 -0.0027448684 0.098152295
-0.08051695 0.057940483 -0.079129696 -0.08491316 0.03616257 0.14762677 -0.041408285 0.038139492
0.08347969 0.12558378 -0.054763973 -0.11368301 0.07235886 -0.039990216 0.062141642 0.039353237
-0.15300086 0.09940575 0.024098232 -0.16224706 0.0376295 0.13890286 0.10959758 -0.087618716
-0.14020202 -0.09730479 0.09323062 0.046920657 0.07371314 -0.12854165 0.13651012 -0.01788798
-0.10456808 0.03961481 -0.11411456 -0.07718102 -0.0599245 0.122180864 -0.09596661 0.1103846
-0.020838857 0.098037735 -0.1686194 0.0587105 -0.063071944 0.092515156 0.07949673 -0.10872397
-0.022052363 -0.043566287 -0.0136628 0.1773106 -0.0512515 0.060585245 0.1570852 -0.040786132
-0.13095966 0.15655752 0.00566265 -0.004633233 -0.0147628635 0.06661494 0.09645887 0.034274906
-0.14785847 0.072169974 0.18087168 -0.17640898 -0.15461367 0.021048129 0.08265586 -0.046243608
00000000: 28ec 813d d37e 133e 8ed0 98bd dc9d dbbd
00000010: 5006 313d e6b0 cf3d 2894 f03c b0f0 30bd
00000020: cc71 afbd 20c1 52bc 01e9 e5bd 645a c6bd
00000030: 932c cbbd 2513 133e 7614 15be 1298 bc3d
00000040: 7535 083e 0060 473a abc2 aebd 6871 84bc
00000050: e8a2 34bd a849 80bc 1e6d 07be 9082 43bd
00000060: c07e 503c ba9f 2abe 3a87 8e3d 3263 8fbd
00000070: f59d f4bd b739 35be 63a8 d2bd 4236 cb3d
00000080: cd85 04be 3dfb 053e 7c4a 0ebe b79d adbd
00000090: 009d 2abd b90a 263e 103f 373d 6c48 02bd
000000a0: b04b 8fbc 70a5 9f3c 5c0e 0bbd ca88 f8bd
000000b0: 80e6 ff3a 69ec 38be b6c6 893d 1494 163d
000000c0: 76b5 ac3d 26ee eebd 65c5 34be 0fcc 303e
000000d0: 9cd5 4e3d 44a5 21be f8d1 37be d5ef 1c3e
000000e0: 31e9 033e f27f 9cbd 9eed 2ebe d6c5 39be
000000f0: 3aa1 d13d c476 19be 7246 cc3d e0c6 4cbd
00000100: 6bbd bfbd 1582 1e3e 24b1 1f3d 2ad5 cd3d
00000110: 1282 ed3d 371b 1fbe 2145 96bd eeda 1dbe
00000120: 9f52 383e b4c1 823d 82e9 9a3d c80e 0ebe
00000130: fcfe 01bd 51f9 34be 0cde 823d 08fa 543d
00000140: e47a 31be e033 e9bc 5603 98bd a2d8 ca3d
00000150: 94ae 743d fa95 f6bd 03fd 083e 1826 1bbe
00000160: a56a 2abe d34f 303e 89ee e5bd cf9f 1d3e
00000170: 0f54 f4bd c895 5d3d e903 2a3e 34d9 703d
00000180: 100e 98bc 6c49 6abd 4ed1 963d f740 b1bd
00000190: 872b dcbd e525 033e e637 e53d 1512 1bbe
000001a0: dba4 113e d4e0 3fbd c298 8f3d c7fb 003e
000001b0: 609e 23be f693 fc3d 14b5 163d de4a 883d
000001c0: a68b d93d aff4 29be 74ed 23bd 0023 7dbd
000001d0: 0034 d83a e00f 17be 600a 5e3c 8e3d d23d
000001e0: 7611 9c3d 6d95 b3bd b0b9 ba3c 404c 613c
000001f0: 263f a1bd e670 7fbd d3e9 033e 744c 733d
00000200: f2b7 2dbe 287e d4bc 60f4 78bc b27b 7cbd
00000210: 5039 ce3c f183 febd 64be 6c3d 25b0 ffbd
00000220: 1414 00bd 4306 85bd e2a4 3abe 82f8 883d
00000230: 21f3 1c3e f63d 01be 5109 223e 56e8 b03d
00000240: 2294 903d 90ea 213d c8b6 8d3c 8871 ddbc
00000250: 3ea8 d63d 9f8c 353e 6b3e c7bd 1c3a 52bd
00000260: fca6 0fbe d4a0 08be d011 7e3d bfd0 aabd
00000270: deed 1ebe aa79 a03d c62b d23d 043e 62bd
00000280: e80e 8e3c 00b4 16bc 6771 083e 4afb c73d
00000290: 5022 0e3d 38ab 21bd 68b4 2a3d e4cc d7bd
000002a0: 8028 63bb eefa 1fbe 78c6 0b3d 4262 a53d
000002b0: 3e81 993d 0caf 27be 0840 f53c 0022 f639
000002c0: f8f4 fcbc 7fb4 2f3e 70fd 5a3d 684e 0fbd
000002d0: 0865 0a3d c00f 41bc 40e3 33bb 1204 c93d
000002e0: 12e6 a4bd 0053 6d3d c00e a2bd f3e6 adbd
000002f0: 341f 143d 792b 173e bc9b 29bd 2838 1c3d
00000300: 66f7 aa3d 0999 003e 3050 60bd a3d2 e8bd
00000310: e230 943d c8cc 23bd 3c88 7e3d dc30 213d
00000320: 42ac 1cbe 3e95 cb3d a869 c53c 1824 26be
00000330: 6421 1a3d 8d3c 0e3e b274 e03d 7171 b3bd
00000340: 1e91 0fbe bc47 c7bd b2ef be3d e02f 403d
00000350: eaf6 963d 6ca0 03be 4fc9 0b3e d089 92bc
00000360: ca27 d6bd 2443 223d e5b4 e9bd 1511 9ebd
00000370: 6473 75bd f639 fa3d 248a c4bd 5211 e23d
00000380: 40b6 aabc 02c8 c83d 90aa 2cbe 6c7a 703d
00000390: dd2b 81bd 9678 bd3d 2ecf a23d acaa debd
000003a0: 28a7 b4bc 9072 32bd f0d9 5fbc e990 353e
000003b0: 18ed 51bd 3c28 783d f1da 203e 5c0f 27bd
000003c0: 4a1a 06be 9d50 203e c08d b93b 60d2 97bb
000003d0: f0df 71bc 6a6d 883d 3a8c c53d d863 0c3d
000003e0: 3668 17be dacd 933d 6d36 393e 8ea4 34be
000003f0: 0c53 1ebe 206d ac3c 7a47 a93d f069 3dbd
