deepchem/models/tests/assets/edgenetwork_weights.npy (npy, 315128 bytes, 1 tensors)

array f4 [14, 5625]
0	0xbc32ec60	-0.010920614
1	0x3cdc0436	0.026857477
2	0x3cd07f60	0.025451362
3	0x3c895008	0.016761795
4	0xbcbf2bb8	-0.023336276
5	0x3befff28	0.007324118
6	0x3ca88a7c	0.020573847
7	0xbb661fa0	-0.0035114065
8	0x3cbee730	0.023303598
9	0xbc806ffd	-0.0156784
10	0xbba8d74c	-0.0051526185
11	0xbc9228ec	-0.017841779
12	0x3ccb2e0e	0.024802234
13	0x3cd5e69c	0.02611094
14	0x3ce87ed4	0.028380789
15	0x3c98ddec	0.018660508
16	0x3b0716e0	0.0020613
17	0x3cd5824a	0.026063103
18	0x3bfc2c10	0.0076956823
19	0xbc1d0f2a	-0.009586135
20	0x3cc2df72	0.023788188
21	0xbcf7d54f	-0.03025308
22	0x3b5c6490	0.0033629276
23	0x3cbcdb3a	0.023053754
24	0xbb9e0a6c	-0.0048230197
25	0x3d002ddf	0.031293746
26	0xbb6af210	-0.0035849847
27	0xbd040705	-0.032233257
28	0xbc0170ac	-0.007900398
29	0xbcef596b	-0.029217442
30	0x3c16afd8	0.009197198
31	0xbb40d458	-0.0029423442
32	0xbc79e68e	-0.015252722
33	0x3cd2442a	0.025667269
34	0x3ce1e0b2	0.027572963
35	0xbc1035f6	-0.008801928
36	0xbcf03dda	-0.029326368
37	0x3cab01e6	0.020874929
38	0x3c2ecd64	0.010669086
39	0xbcd7b2d2	-0.026330385
40	0x3bdc0318	0.006714236
41	0x3d040225	0.032228608
42	0x3c442db4	0.011973787
43	0x3ca8e9f6	0.020619374
44	0xbccd2570	-0.025042266
45	0xbc2ac750	-0.010423496
46	0x3cf9f7a6	0.030513596
47	0xbbf27388	-0.0073990263
48	0xbce071c3	-0.027397996
49	0x3c917d72	0.017760012
50	0x3cfff416	0.031244319
51	0xbad3d920	-0.0016162731
52	0x3c8cbe18	0.017180488
53	0x3c5cea20	0.013483554
54	0xbcaffe68	-0.021483615
55	0x3c88d8c4	0.016704924
56	0xbc3b7fc0	-0.011444032
57	0x3bd8a0b8	0.006610956
58	0xbd03fb7b	-0.032222252
59	0xbc4a243a	-0.012337739
60	0x3c847cd2	0.0161728
61	0x3b6f25b0	0.003649097
62	0x3c7a5740	0.015279591
63	0xbaec6950	-0.0018036757
64	0xb9aed080	-0.0003334321
65	0xbd039154	-0.032121018
66	0xbcc5d442	-0.024149064
67	0x3cf82736	0.030292135
68	0x3ac1afa0	0.0014777072
69	0x3c9bb304	0.01900626
70	0xbc0f27e0	-0.008737534
71	0xbc4ff742	-0.012693228
72	0xbce06032	-0.02738962
73	0xbbf96a80	-0.0076115727
74	0xbca51329	-0.020150738
75	0x3c943bca	0.018094916
76	0x3cb907b4	0.022586681
77	0x3c9b7664	0.018977351
78	0xbc9e6687	-0.019335998
79	0x3c8c93e8	0.017160371
80	0x3cae05cc	0.021242999
81	0xbc77e6dc	-0.015130725
82	0xbca39c06	-0.019971859
83	0x3cab65cc	0.020922564
84	0x3d0198c1	0.031639818
85	0xbb7ba350	-0.0038396902
86	0x3ce8f1b2	0.028435562
87	0xbce2901b	-0.027656605
88	0xbc946296	-0.018113416
89	0x3cf6ea36	0.030140977
90	0xbc73cc8c	-0.014880311
91	0x3cda9340	0.026681542
92	0xbcccebe2	-0.025014821
93	0xbb8e83a4	-0.004349189
94	0xbb44c9e0	-0.0030027553
95	0xbcb31028	-0.02185829
96	0xbc26ffca	-0.010192821
97	0xbc9df53a	-0.019281972
98	0xbc336584	-0.010949496
99	0x3c819692	0.015818868
100	0x3c048260	0.008087724
101	0xbca67f6c	-0.020324431
102	0x3c716d48	0.014735527
103	0x3c923048	0.017845288
104	0x3d057ba7	0.032588627
105	0xbc462ee0	-0.012096137
106	0xbc3bcb3a	-0.011462027
107	0x3c960562	0.018313114
108	0xbc459650	-0.012059763
109	0x3c59be34	0.013289977
110	0xbbc46044	-0.005992921
111	0xbcb13d92	-0.021635804
112	0x3c66a6c4	0.014077846
113	0x3c015bb0	0.007895395
114	0xbc869844	-0.016430028
115	0x3baae6f8	0.005215522
116	0x3987ae00	0.00025878847
117	0xbd008b70	-0.031382978
118	0xbcaf2508	-0.021379963
119	0x3c28a904	0.010294203
120	0x3c386c30	0.011256263
121	0xbbf730d8	-0.0075436644
122	0x3c705534	0.0146687515
123	0xbc8b6b48	-0.01701893
124	0xbb2e3fa8	-0.0026588235
125	0xbc9b054d	-0.018923426
126	0xbbe958a0	-0.0071211606
127	0xbc9320dd	-0.017960006
128	0xbcc3268e	-0.023822095
129	0xbcab0d72	-0.020880435
130	0xbcc06c02	-0.023489002
131	0x3c7808d8	0.015138827
132	0x3c757294	0.014980931
133	0xbb9a8e18	-0.004716646
134	0x3c9df4e2	0.019281808
135	0x3cc3ca16	0.023900073
136	0xbcf5374f	-0.0299336
137	0x3b895220	0.0041906983
138	0xbc4a5518	-0.0123493895
139	0xbb40d498	-0.002942359
140	0x3c270de4	0.010196183
141	0xbce88562	-0.028383914
142	0xbbfa7cb4	-0.0076442603
143	0xbca7d580	-0.020487547
144	0x3c5feb84	0.013666991
145	0xbc65d190	-0.014027014
146	0xbccdb928	-0.025112703
147	0x3ce86bf0	0.028371781
148	0x3c0b97ac	0.008520048
149	0x3be8bd38	0.0071026348
150	0xbc8d055a	-0.017214466
151	0xbcae8388	-0.021302953
152	0xbc8c47bd	-0.017124051
153	0x3d03de21	0.03219426
154	0x3ceaa0a6	0.028641056
155	0x3c027254	0.007961828
156	0x3c195da8	0.009360708
157	0x3c3b3e50	0.011428431
158	0xbbe45c3c	-0.006969003
159	0xbccefd6c	-0.025267325
160	0x3c078b34	0.008272935
161	0xbc613438	-0.01374536
162	0x3c25f8b0	0.0101300925
163	0x3b314cb0	0.0027053766
164	0x3bda8da8	0.006669719
165	0x3cac80cc	0.021057509
166	0xbce5782b	-0.028011402
167	0xbcd1b08b	-0.025596878
168	0xbb6a1f38	-0.0035724174
169	0x3c5caf1c	0.013469484
170	0xbcf94cf8	-0.03043221
171	0xbb4b2f20	-0.003100343
172	0xbcb7b51c	-0.022425227
173	0x3c88f988	0.016720548
174	0x3ce16572	0.027514193
175	0x3c9446e8	0.018100217
176	0xbc37c722	-0.011216911
177	0xbc7b3244	-0.0153318085
178	0xbc83d00e	-0.01609042
179	0xbc0734a8	-0.0082523
180	0xbc915726	-0.01774175
181	0xbcdf4b3a	-0.02725755
182	0xbca5ffae	-0.02026352
183	0x3c708300	0.01467967
184	0xbc9a3dc1	-0.018828275
185	0x3cf22226	0.029557299
186	0xbcc33b8b	-0.023832103
187	0xbc99e387	-0.018785251
188	0x378cd800	1.6789883e-05
189	0x3c123958	0.008924805
190	0x3cbcdb20	0.023053706
191	0x3c926976	0.017872553
192	0x3cbd05fe	0.023074146
193	0xbc6a36bc	-0.014295276
194	0xbc6e2ca2	-0.0145370085
195	0x3c7d9bb0	0.015479013
196	0x3bd32188	0.006443206
197	0xbbb92254	-0.005649844
198	0xbc92b84d	-0.017910147
199	0xbb9fb320	-0.0048736483
200	0xbc4a8eb2	-0.012363123
201	0xbbd4c584	-0.0064932723
202	0xbc682b42	-0.01417047
203	0xbcb12894	-0.021625794
204	0xbb76ed98	-0.0037678238
205	0xbc59f5d0	-0.013303235
206	0x3b8d7420	0.0043168217
207	0x3c66f568	0.014096595
208	0x3ba258d8	0.0049544387
209	0x3d01fe8f	0.031736907
210	0x3bd60930	0.006531857
211	0x3ce25f46	0.02763332
212	0xbcc2fd6c	-0.023802482
213	0x3c00049c	0.007813599
214	0x3c05e700	0.0081727505
215	0x3ca46a5e	0.020070251
216	0x3ce3b2c2	0.0277952
217	0x3c4a5f54	0.01235183
218	0x3c33ca14	0.010973472
219	0xbc5853cc	-0.0132035725
220	0xbc6d9fca	-0.014503429
221	0x3c384910	0.011247888
222	0xbb180fc0	-0.0023202747
223	0x3c2ad074	0.010425676
224	0x3c23bcac	0.009993713
225	0x3af270a0	0.00184967
226	0x3c292eb8	0.01032608
227	0x3c857828	0.016292647
228	0x3bc39ba0	0.0059694797
229	0xbc1b3372	-0.009472715
230	0x3cbf2484	0.023332842
231	0x3aef5600	0.0018259883
232	0x3bec0250	0.007202424
233	0xba9b1340	-0.0011831298
234	0x3c5156bc	0.012777027
235	0x3c8bcf36	0.01706658
236	0xbccb07bf	-0.024783967
237	0xbcaff07e	-0.02147698
238	0x3c5f8a94	0.013643879
239	0x3cf25c86	0.029585134
240	0xbc88cb64	-0.016698547
241	0x3ced9f7a	0.029006708
242	0xbcb51c1e	-0.022108134
243	0x3c07bd1c	0.008284833
244	0x3ab342e0	0.0013676547
245	0x3c8d8c06	0.017278682
246	0x3c9c24e0	0.019060552
247	0xbbfcf0f4	-0.0077191535
248	0xbcc04f14	-0.023475207
249	0x3cf8767e	0.030329939
250	0xbc6cd6f2	-0.014455544
251	0x3c39b03c	0.011333521
252	0x3ccd1e2a	0.025038797
253	0xbceb0ec5	-0.028693566
254	0xbc512280	-0.012764573
255	0xbb99b5b4	-0.00469085
