deepchem/models/tests/assets/graphconvlayer0_weights.npy (npy, 403328 bytes, 1 tensors)

array f4 [21, 75, 64]
0	0x3e2a13ab	0.16609065
1	0xbe286644	-0.16445261
2	0xbe053800	-0.13009644
3	0x3dadb0e6	0.08481006
4	0xbdc989c9	-0.098407336
5	0x3e30d363	0.17268138
6	0xbe18ce91	-0.14922549
7	0xbe47bba8	-0.19505179
8	0x3d245b7c	0.04012631
9	0xbddc71c1	-0.10763884
10	0xbe450a5a	-0.1924223
11	0x3cdc34d8	0.026880667
12	0xbda4cee0	-0.08047271
13	0x3e0945e1	0.13405563
14	0x3e10be2f	0.1413505
15	0x3dd6aba6	0.10481958
16	0x3c615350	0.013752773
17	0xbde0c639	-0.10975308
18	0xbdb4a9f1	-0.08821476
19	0x3e1cc43d	0.15309234
20	0x3e2b4473	0.1672533
21	0xbdf755c0	-0.120769024
22	0x3e4b4de5	0.19853933
23	0xbe44f354	-0.19233447
24	0x3e0c07db	0.13674872
25	0x3e0595a3	0.13045363
26	0xbca678a8	-0.020321205
27	0x3e40bd61	0.18822242
28	0x3e2724df	0.16322659
29	0xbe20b034	-0.15692216
30	0xbe28c3c2	-0.16480926
31	0x3e136077	0.14392267
32	0xbe3abb7d	-0.18235584
33	0xbde2385a	-0.110459045
34	0x3e04e3c1	0.12977506
35	0xbcbd9310	-0.023141414
36	0xbd147a80	-0.036249638
37	0xbdf09501	-0.1174717
38	0x3d6c19a4	0.05764164
39	0xbdfaad36	-0.122400686
40	0x3d2a2134	0.04153557
41	0xbe44b246	-0.19208631
42	0x3db7fb96	0.08983533
43	0x3e37de0f	0.17955802
44	0xbd889ee0	-0.06670928
45	0x3e2dcd73	0.16972904
46	0xbe21ade5	-0.15788992
47	0x3e0beb33	0.1366394
48	0xbe0b40e2	-0.1359897
49	0x3e1ff573	0.15620975
50	0x3d9c2432	0.07624091
51	0x3d1badd4	0.038007572
52	0x3e356f83	0.1771832
53	0x3d21945c	0.039448127
54	0xbdd84bb9	-0.10561318
55	0x3e0bceab	0.13653056
56	0xbe0e1662	-0.13875726
57	0x3e497b19	0.19675864
58	0x3c70c040	0.0146942735
59	0xbd617ebc	-0.055052504
60	0xbc874fb0	-0.01651749
61	0xbdab17bd	-0.08354137
62	0x3e2a8919	0.16653861
63	0xbd7964bc	-0.060887083
64	0xbccf3780	-0.02529502
65	0xbd821cac	-0.06353125
66	0xbdbe32f3	-0.092870615
67	0xbd8ea320	-0.069647074
68	0x3d3ebb0c	0.0465651
69	0xbe5440de	-0.2072787
70	0x3d1a8078	0.037720174
71	0x3e1bae51	0.15203215
72	0xbe10351f	-0.14082764
73	0x3d6abae4	0.05730714
74	0x3e35c5e7	0.17751275
75	0xbd915af4	-0.07097426
76	0xbe06a2b0	-0.13147998
77	0xbbf9e100	-0.007625699
78	0xbe4fbe44	-0.20287424
79	0x3e4a1dd5	0.19737943
80	0xbe4a5697	-0.19759594
81	0x3e38fed7	0.18065964
82	0xbe39cf82	-0.18145564
83	0xbd1c42cc	-0.03814964
84	0x3d4753fc	0.048664078
85	0x3e1a045b	0.15040724
86	0x3e14b2d5	0.14521344
87	0x3d1dac74	0.038494542
88	0x3e0cc1df	0.13745831
89	0x3e2b996d	0.16757746
90	0xbe1808b2	-0.14847067
91	0x3dd1b9b2	0.10240497
92	0x3e23352b	0.1593825
93	0xbe4a0040	-0.19726658
94	0x3de718f6	0.11284058
95	0xbe3a904c	-0.18219107
96	0xbdee12e3	-0.11624696
97	0x3da76966	0.081744
98	0xbd84fdc2	-0.06493713
99	0xbe09696e	-0.13419124
100	0xbd2de08c	-0.042450473
101	0xbe4fc4b1	-0.20289876
102	0xbe2a5f03	-0.16637807
103	0x3db14762	0.08656193
104	0xbdf60e22	-0.12014414
105	0xbe33ff6b	-0.17577903
106	0xbda27e9e	-0.079343066
107	0xbd836e9e	-0.06417583
108	0xbe0f4118	-0.13989675
109	0x3d96a81e	0.073562846
110	0xbd671620	-0.056417584
111	0x3dad9c96	0.08477132
112	0x3bba7f80	0.0056914687
113	0x3b7ce800	0.0038590431
114	0x3e2c2fcd	0.1681511
115	0x3d643f44	0.055724397
116	0x3e3c03c5	0.18360813
117	0x3e519b49	0.20469393
118	0xbd9b8fce	-0.07595788
119	0x3dea5ac2	0.11443092
120	0x3ddb5dc6	0.10711245
121	0x3e3170c5	0.17328174
122	0xbe2ea182	-0.17053798
123	0x3d4f51e4	0.050615206
124	0xbc03ebb0	-0.008051798
125	0x3e42f217	0.19037662
126	0xbe12f1c7	-0.14350043
127	0xbd8c8480	-0.0686121
128	0xbdb8910c	-0.090120405
129	0xbd9de58a	-0.07709797
130	0x3e538213	0.20655088
131	0xbd2856ac	-0.04109828
132	0xbce69748	-0.028148308
133	0x3dac5782	0.08415128
134	0x3e4b8a4d	0.19876976
135	0x3e0c2c97	0.13688885
136	0xbd17ab7c	-0.037028775
137	0xbd862dbe	-0.065516934
138	0xbe01246e	-0.12611553
139	0x3b939760	0.0045041293
140	0xbd1836f0	-0.037161767
141	0x3d4bc9c4	0.049752966
142	0x3dc05186	0.09390549
143	0x3da03eda	0.07824488
144	0x3e14726d	0.14496775
145	0xbe4c4f67	-0.19952165
146	0xbe246833	-0.16055374
147	0x3dcf507e	0.101227745
148	0xbdb7b4b7	-0.089700155
149	0x3b22f7c0	0.0024866909
150	0x3e39430d	0.18091984
151	0x3d7941e4	0.060853854
152	0x3dc5fd86	0.096674964
153	0xbe390c40	-0.18071079
154	0xbb5001c0	-0.0031739324
155	0xbbf29d20	-0.0074039847
156	0x3e3dce0d	0.18535633
157	0xbc2107f0	-0.009828553
158	0xbe0b6060	-0.13610983
159	0x3d8bb74e	0.06822072
160	0x3a32fd00	0.0006827861
161	0xbc4c44f0	-0.012467608
162	0xbe19ed30	-0.15031886
163	0xbd836256	-0.064152405
164	0xbe294853	-0.16531496
165	0x3e2348cf	0.15945743
166	0x3e1226bd	0.1427259
167	0x3c18f410	0.009335533
168	0xbdb62130	-0.08893049
169	0xbe50a035	-0.20373614
170	0x3dd90666	0.105969235
171	0xbd82dc5c	-0.063896865
172	0xbe0e68e4	-0.139072
173	0xbd973a52	-0.073841706
174	0x3e2b666b	0.16738288
175	0xbd1ab388	-0.03776887
176	0xbdf2f75c	-0.11863586
177	0xbdc9dcd0	-0.0985657
178	0x3e18c3a5	0.14918382
179	0xbe4fc022	-0.20288137
180	0x3d78381c	0.060600385
181	0x3a4cbd00	0.00078101456
182	0xbd400124	-0.046876088
183	0xbe21cab9	-0.15799989
184	0x3e07e67d	0.13271518
185	0xbd603ff0	-0.054748476
186	0xbe2bdf38	-0.1678437
187	0xbe1600a7	-0.14648686
188	0xbd2f2f50	-0.04276973
189	0x3e3e05e7	0.18556939
190	0x3e1cc34f	0.1530888
191	0x3d90cb5e	0.07070039
192	0x3db8a4b6	0.09015791
193	0x3d75f454	0.060047463
194	0x3d0683d4	0.032840565
195	0xbe01d1d2	-0.12677696
196	0x3e2be987	0.16788302
197	0xbd27e970	-0.040994108
198	0x3d91144a	0.07083948
199	0x3ced04f8	0.028933033
200	0xbe4b720b	-0.19867723
201	0x3d0d441c	0.034488782
202	0x3e4bc675	0.19899924
203	0x3e09cb75	0.13456519
204	0xbd77f0bc	-0.060532317
205	0x3d10501c	0.03523265
206	0xbc329c80	-0.01090157
207	0xbe0ea8f5	-0.1393164
208	0x3e446e0f	0.19182609
209	0xbcf839e0	-0.030301034
210	0x3db4162a	0.0879329
211	0xbe24b2bc	-0.16083807
212	0xbcf611f0	-0.03003785
213	0x3e49ba31	0.19699933
214	0xbd9f4e94	-0.077786595
215	0x3dbe0ae2	0.092794195
216	0xbe54151c	-0.20711178
217	0xbe4e4954	-0.2014516
218	0x3d54eeac	0.051985428
219	0xbe1b4184	-0.15161711
220	0xbe4e5911	-0.20151164
221	0x3d78a5f4	0.06070514
222	0x3e471a79	0.19443692
223	0xbcbedd18	-0.023298785
224	0x3d4130cc	0.047165677
225	0x3dac9f96	0.08428876
226	0xbd49a714	-0.049231604
227	0xbdb42b06	-0.087972686
228	0xbdd3311a	-0.103121
229	0xbe4e3e5f	-0.2014098
230	0xbc557f30	-0.013030812
231	0x3e19542b	0.14973514
232	0x3d612254	0.05496438
233	0xbd9a247a	-0.075264886
234	0xbe366f05	-0.17815788
235	0x3df6133e	0.12015389
236	0xbd778790	-0.060432017
237	0xbe0459aa	-0.12924829
238	0x3ddbffd2	0.10742153
239	0x3e3b83ab	0.18311946
240	0xbc99ae68	-0.018759921
241	0xbcdf71b8	-0.027275905
242	0xbe43aca2	-0.19108823
243	0xbe36a3db	-0.17835943
244	0x3e03c6db	0.12868826
245	0xbb5c9e40	-0.003366366
246	0x3de31dbe	0.11089657
247	0x3bfca940	0.007710606
248	0x3e52e0e7	0.20593606
249	0x3e272431	0.163224
250	0x3d6e0acc	0.058115765
251	0xbe185410	-0.14875817
252	0xbc822030	-0.015884489
253	0x3dd165fa	0.102245286
254	0xbdbf8501	-0.0935154
255	0x3c5051e0	0.012714833
