deepchem/models/tests/assets/graphconvlayer1_weights.npy (npy, 344192 bytes, 1 tensors)

array f4 [21, 64, 64]
000000 3a 34 34 be c0 6a 57 3c 79 f9 0d 3e 00 00 5f 38
       -0.17598048 0.01314801 0.13864698 5.3167343e-05
000010 40 8f 46 be 5c 89 5a 3d f0 d5 12 bd 77 d7 1e 3e
       -0.19390583 0.053353652 -0.035848558 0.15511881
000020 d0 d2 21 bd 20 db 4b bd d1 4f 4e be 62 e7 be bd
       -0.039507687 -0.04976952 -0.20147635 -0.093214765
000030 d9 b3 19 3e 61 f6 25 3e bc 2e 62 3d 6b 8a 55 3e
       0.15010013 0.16207267 0.05522035 0.20853584
000040 3c 9c bd bd 86 45 c3 3d 94 2f 8c bd c8 03 e1 3c
       -0.09258315 0.09534745 -0.06845012 0.027467623
000050 50 a7 93 3c f1 c0 13 3e 80 1f aa bb c8 97 11 bd
       0.018024117 0.1442907 -0.0051917434 -0.03554514
000060 7d b7 1e 3e ae 4f 89 3d 10 14 8b bd f0 c3 93 bd
       0.15499683 0.06704651 -0.06790936 -0.072151065
000070 0c 04 21 3d d9 73 43 3e 4f 4b 2e 3e 68 4f 99 bc
       0.0393105 0.19087161 0.17020915 -0.018714622
000080 4b 5a 37 3e 21 94 dc bd 50 12 97 3c 15 5a 24 3e
       0.17905538 -0.10770441 0.01844135 0.16049989
000090 3e 6a 94 3d c3 a5 3a 3e 59 f7 5a 3e 42 e3 82 3d
       0.072468266 0.18227296 0.21383418 0.06391002
0000a0 92 9b 32 be 20 d0 b1 3c a2 36 3c be 4d cf 4a 3e
       -0.17442158 0.021705687 -0.18380216 0.19805641
0000b0 b9 60 01 3e 05 ad 45 3e 97 96 0b be c4 13 06 be
       0.12634553 0.19304283 -0.13631664 -0.13093477
0000c0 a0 81 98 3c bc c1 51 3d 20 22 4e bd 46 4d 53 be
       0.018616498 0.05121015 -0.050325513 -0.20634946
0000d0 e8 a2 d5 3c e0 55 ea bd a4 1b 44 be 6e 4a e3 3d
       0.026078656 -0.114421606 -0.19151169 0.11098181
0000e0 dc 36 b3 bd 20 dd e5 bc ff 7b 39 3e dd af 1c 3e
       -0.08750698 -0.028059542 0.18113707 0.15301462
0000f0 38 93 80 bd d6 d1 fd 3d a1 be 12 3e 5c bc b0 bd
       -0.0627808 0.12393539 0.14330532 -0.08629677
000100 c2 37 b9 3d a5 10 1e be d0 e6 18 3c 6b 88 17 3e
       0.09043838 -0.15436037 0.009332374 0.14798133
000110 1b 11 d7 bd 44 26 19 3d 08 4d 01 be fd 23 34 3e
       -0.105013095 0.03739001 -0.12627041 0.17591853
000120 2e a5 80 3d 86 15 b5 3d ce 5c af bd 91 e0 1f 3e
       0.062815055 0.08841996 -0.08562623 0.15613009
000130 0d 1b 1e be 52 67 b1 bd 88 8e 97 bd 6a aa 9d 3d
       -0.15440007 -0.08662285 -0.074002326 0.076985195
000140 ac a9 4f bd 2a ac b4 3d 00 74 b9 bb 71 b5 cc bd
       -0.05069892 0.088219 -0.00565958 -0.09995545
000150 00 40 12 bc 0b 76 46 be 7e 5b 39 be 70 ed dd bc
       -0.008926392 -0.19380967 -0.18101308 -0.027090758
000160 53 2e ff bd 2c 53 38 bd b2 07 f7 3d 29 26 26 be
       -0.124600075 -0.045001194 0.12062015 -0.16225494
000170 88 ac 82 bd 74 1d 33 3d e0 9c 9d bc ec 3a 71 3d
       -0.06380564 0.04372926 -0.019239843 0.058894083
000180 6c 58 69 3d a8 a6 9f bc 98 b1 a4 3c ee ac be 3d
       0.05696909 -0.019488648 0.020104215 0.093103275
000190 4e 2a 8e 3d 31 29 47 3e 4d 86 5a 3e ce d3 27 be
       0.06941663 0.19449307 0.21340294 -0.16389391
0001a0 71 84 3f 3e aa 26 c2 3d fa 7e b3 3d 00 9f a8 3b
       0.18702866 0.09480031 0.08764453 0.0051459074
0001b0 d0 9c 3f bd 3d 34 4e 3e 46 a1 b3 3d 22 ca e2 3d
       -0.046780407 0.20137115 0.08770995 0.1107371
0001c0 82 bf b2 bd 54 fe 11 be 26 f6 2c be 40 67 50 bc
       -0.087279335 -0.14257175 -0.16890773 -0.012719929
0001d0 11 e3 50 3e 9f 7b 0e 3e da c8 f9 bd 25 dd 3f be
       0.20399119 0.13914345 -0.121965125 -0.18736704
0001e0 80 1e 42 bc 40 b0 a9 bb 80 8e c6 3b 48 ae 95 bc
       -0.011848092 -0.0051784813 0.006059468 -0.01827158
0001f0 ff 1f 1a 3e 74 cc 28 bd f9 ee 00 3e 24 15 3d bd
       0.15051268 -0.041210607 0.12591161 -0.04616274
000200 44 63 5e 3d 07 3d 2d 3e 30 e8 0b be d9 65 1a 3e
       0.054293886 0.16917811 -0.13662791 0.15077914
000210 30 8c 75 bd 93 2b 40 3e ee a6 d3 3d 9a 64 b3 3d
       -0.059948146 0.18766622 0.10334574 0.087594226
000220 58 10 5e bd 78 04 88 bd 28 da e4 bd cc f1 ab bd
       -0.054214805 -0.06641477 -0.111744225 -0.083957285
000230 24 65 8b bd 4c 5f a2 bd 8c 97 44 3d f4 72 29 be
       -0.068064004 -0.07928333 0.04799609 -0.16547757
000240 d4 3c 2c be dc 7b 48 be dc 7c 74 3d 20 77 b7 bd
       -0.16820079 -0.19578499 0.059689388 -0.08958268
000250 82 a7 f6 bd 6e 84 b9 bd b0 4e 7d 3c 4a 54 2b be
       -0.12043668 -0.09058462 0.015460655 -0.16731372
000260 a4 49 15 bd 38 2b e9 3c 70 7a c4 bc 8e 0f b4 3d
       -0.036447182 0.028462991 -0.023984164 0.08792029
000270 73 c3 3d be c0 d6 92 3b a6 37 03 be e0 92 9a bc
       -0.18531589 0.0044811666 -0.12814197 -0.018868864
000280 21 2d 23 3e f9 4c 2a 3e e6 0f bb 3d cb eb 38 3e
       0.15935184 0.16630925 0.09133892 0.18058698
000290 8e 07 a5 3d 02 f6 12 be 65 32 14 3e c6 77 08 be
       0.080580816 -0.14351657 0.14472349 -0.1332694
0002a0 cf 50 51 3e e5 c0 07 be 28 bc 11 bd b5 7a 24 3e
       0.20440982 -0.13257177 -0.03557983 0.16062434
0002b0 34 e1 f0 bd b0 bb 9b bc 16 f7 b7 bd 63 d9 1e 3e
       -0.11761704 -0.019010395 -0.08982675 0.15512614
0002c0 ea 03 ae bd 6e fc 4f be 4e 52 b9 3d e2 25 4e be
       -0.0849684 -0.20311138 0.090489015 -0.20131639
0002d0 f4 29 4b 3d 00 c7 c4 3a 64 0c c4 bd 0a 33 eb 3d
       0.049600556 0.001501292 -0.09572676 0.11484344
0002e0 6c 27 53 be aa 94 9b 3d 55 c6 5c 3e 18 80 4b be
       -0.20620507 0.07596715 0.21560033 -0.19873083
0002f0 b9 2d 25 3e e1 85 d1 bd e2 18 01 be 4a 20 d0 3d
       0.16130723 -0.102306135 -0.12607148 0.10162409
000300 fa c5 22 be 77 d1 c1 bd 2e fe 85 3d 40 f4 b5 3c
       -0.15895835 -0.094637804 0.065426216 0.022211194
000310 40 22 95 3b 10 aa d1 bd 6a 19 02 be b0 16 fb bc
       0.004551202 -0.10237515 -0.12705007 -0.030650467
000320 d7 c6 58 3e 1c a0 02 3d 76 96 3b be 04 87 28 be
       0.21169601 0.031890973 -0.18319115 -0.16457754
000330 f9 d3 59 3e 74 4b ba bd c4 c0 46 3d 4b e1 0d 3e
       0.21272267 -0.09096423 0.04852368 0.13855474
000340 83 4e f4 bd 1e ef d2 3d 08 d8 d9 3c e4 84 6a 3d
       -0.119290374 0.10299514 0.02659227 0.05725564
000350 6d fd 0f 3e 98 d6 8b bd 68 cb 19 bd 00 a8 cc 39
       0.14061518 -0.0682804 -0.0375475 0.00039035082
000360 10 ca 59 bc 58 2d c9 bc 35 c3 48 3e 24 1b eb bd
       -0.013292804 -0.024557754 0.19605716 -0.11479786
000370 e8 81 f9 3c 15 59 d5 bd 12 9b 90 bd b8 e0 ca bc
       0.030457452 -0.10417382 -0.07060827 -0.024765357
000380 14 d7 40 bd b2 cb e5 3d fa a5 96 3d 6e 91 dc 3d
       -0.047080114 0.112204924 0.07355876 0.10769926
000390 bb bd f9 bd 00 00 ca 39 3a 1f bb 3d 44 27 29 bd
       -0.12194391 0.00038528442 0.09136815 -0.041297212
0003a0 72 ed 58 be ca e9 1f be dc 8b 47 bd 3e 54 de bd
       -0.21184328 -0.15616527 -0.048717365 -0.10855912
0003b0 a5 91 52 3e 33 32 3a 3e 57 89 44 3e b2 7b 43 be
       0.20563371 0.18183212 0.19193016 -0.19090155
0003c0 2a c9 ba 3d 41 8f 54 3e dc c0 4a 3d 83 3e 3f be
       0.091204 0.20757772 0.04950033 -0.1867619
0003d0 d4 16 7d 3d b6 1c d1 bd 5b d8 28 be c0 3a 94 3c
       0.06178935 -0.10210554 -0.16488783 0.01809442
0003e0 52 ab e6 bd 82 40 c5 bd 40 87 82 bc 96 8d 2c be
       -0.112631455 -0.096314445 -0.015933633 -0.16850886
0003f0 63 2b 2e 3e e2 89 22 be a9 ee 23 3e e6 84 e6 3d
       0.17008738 -0.1587291 0.1600901 0.11255817
