deepchem/models/tests/assets/layer_2_weights.npy (npy, 8128 bytes, 1 tensors)

array f4 [1000, 2]
00000000: d4c2 633d 6f13 82bd 0085 f0bc ca65 c5bc
00000010: 2380 98bd c9f0 88bd 4cb2 943d f627 23bd
00000020: ec9c 94bd c08b 4abb 1910 7dbd 38db 42bd
00000030: a456 9cbc 54e1 8f3d 802b 6b3b 98ef fa3c
00000040: 78fe 6cbd e8d0 f23c ac74 babc f02e 43bc
00000050: e2cc 9cbd 28a1 2abc 76a3 143d 3256 913d
00000060: 1482 873c deae 87bd e075 683d fd4c 8ebd
00000070: c27d 91bd 5c44 b13c 709c 92bc 1896 02bc
00000080: 908c febb b1d1 9cbd 0a6f ddbc d0ae c43b
00000090: f87c 3cbd 7515 8cbd 6083 983c 0075 9b3c
000000a0: 720e 013d 0046 6d3a 9ce8 68bd cdbb 3cbd
000000b0: 20aa 573c 56d2 893d 801f 5dbc 8498 ddbc
000000c0: dcfb 6e3d 40ff 523d f851 813d 0047 783d
000000d0: 7e15 993d 44fd c53c 0eac 3b3d 088b 5a3c
000000e0: a05f d93b 124e 84bd 48ee 5b3d 3a14 153d
000000f0: bc94 713d 0c80 cc3c 8077 4f3a af93 86bd
00000100: aebc 8abd a8ea 0f3c 007b adb9 1c1c d2bc
00000110: c4cc c63c 8e8c 81bc 6a13 0cbd 8d4f 88bd
00000120: 9805 8b3d a832 a0bc 7d8d 36bd a0b7 3b3d
00000130: 3072 f93b 06f1 31bd 38cb 8cbc 8a48 1c3d
00000140: 67bf 37bd e0dd 5a3d 485d 473d fcc0 86bd
00000150: 4323 2abd 58b7 fe3c 42c4 c2bc 0815 713d
00000160: 6022 3d3d 2006 833b c4f9 303d 9d6e 3fbd
00000170: 7019 d2bc eda2 4abd d085 bb3b 44b8 583d
00000180: 5079 8bbb 145c c1bc 5643 21bd db36 99bd
00000190: 9e7e 8c3d df88 9bbd d650 2c3d 7850 a9bc
000001a0: 2891 1d3c b247 6bbd 8047 303b 0add b7bc
000001b0: bcd9 c83c 9a99 5ebd e990 81bd a6c8 943d
000001c0: c023 8d3d 0186 53bd 8045 5dbc 9cb7 803d
000001d0: 86cc 9cbd 280b 7e3d 009e beba b02f e03b
000001e0: b06d 2f3d 57ec 29bd 00fe 98bd 5a6b 87bd
000001f0: 48ce 70bd 7cf1 533d 1ed7 95bc 80e7 773a
00000200: 5465 5ebd 8c8a 373d e052 35bb 7a8f 833d
00000210: 70ae 03bc 1d1b 15bd 4ebd 81bc b60d 933d
00000220: 2967 80bd 3eab 1c3d ec77 eabc 4464 4bbd
00000230: d40a ed3c b86b 6f3d 8cb3 91bd 3c00 b73c
00000240: 7c6c 4f3d 00e6 323a dc87 873d d55f 97bd
00000250: bc4c 463d 2e14 81bd 6838 6ebc 803d debb
00000260: 4fe1 00bd a4ee 603d e6c5 393d fdad 3abd
00000270: 6a83 833d 8f82 37bd 9871 7e3c b03d 84bc
00000280: 820c 2a3d 8433 4cbd 30fc 863b 3ce4 7f3d
00000290: 0c3a 98bc 30f0 56bc 0082 11ba 16a1 2e3d
000002a0: ce95 09bd 80c6 683d 28aa 563d 98be 18bc
000002b0: 986f 5cbc 0e47 c4bc 7e4a 89bd 00bb 8f3b
000002c0: 80a8 163a d063 91bb d8fe 74bc 1ca7 9c3d
000002d0: 6b1a 0abd 56e9 87bc d0c2 af3c d877 61bd
000002e0: 607a 803d b8f5 3b3c 741d 923c d41a 903c
000002f0: 2095 543b 70ff edbb f4af 893c abc2 95bd
00000300: 408f ccbb 8221 71bd cc45 4d3d 80d2 603b
00000310: cc38 f13c 1e70 81bc 7097 cdbb 2480 903d
00000320: 4057 f5ba 440d 253d 9a45 d9bc 2e27 8c3d
00000330: daf1 143d 20b8 213d 5a18 263d 4282 833d
00000340: 2843 793d 4c87 193d 62cf 6bbd 4434 c73c
00000350: baaa 83bd 087d 7d3d fe77 a4bc 1844 193c
00000360: 9822 303c 24ad 4bbd 804a 343b 91ce 2cbd
00000370: 4ce5 1f3d 9eb0 03bd a439 ad3c adca 87bd
00000380: 4dbe 58bd 88c5 663d 7caf 69bd 40ca 263c
00000390: 1c2b 733d a603 1e3d a860 883c 8a90 953d
000003a0: 8e68 b2bc 283f 3c3c ccd1 863d c246 1abd
000003b0: 20ef 8cbc e42a 8a3d 7d5b 9cbd e05c f7bb
000003c0: 1996 3bbd 381b 593d c6ee 083d f49a bfbc
000003d0: 0024 78bd c87d 45bd 74a2 b53c 5552 44bd
000003e0: c84b 7c3c a451 ff3c c0c1 1d3c 2890 0dbc
000003f0: 4ca6 8ebd 9019 773d 568f 923d 3c11 ea3c
0.055605724 -0.06351363 -0.029360294 -0.024096388 -0.07446315 -0.06686551 0.0726057 -0.03983303
-0.07256493 -0.0030906051 -0.06178293 -0.047572345 -0.019084282 0.070254 0.0035884082 0.030631825
-0.057859868 0.02964063 -0.022760712 -0.011913046 -0.07656266 -0.010414399 0.0362887 0.070965186
0.016541518 -0.0662515 0.05675304 -0.06948278 -0.071040645 0.021639042 -0.01789686 -0.007970355
-0.007768221 -0.07657183 -0.027030487 0.0060022846 -0.046017617 -0.0684003 0.018617332 0.018976688
0.031507917 0.00090512633 -0.05686246 -0.04607754 0.01316312 0.067295715 -0.01349628 -0.027050264
0.05834566 0.051512957 0.063144624 0.060614586 0.074748024 0.024168618 0.04581838 0.013338812
0.006633714 -0.06460203 0.05369404 0.036396243 0.058979735 0.024963401 0.000791423 -0.06571137
-0.06774269 0.008783974 -0.00033088773 -0.02564817 0.024267562 -0.015814092 -0.034198202 -0.06655798
0.06788176 -0.019555405 -0.044568527 0.045829415 0.007612489 -0.04344275 -0.017186746 0.038155116
-0.04486027 0.053434253 0.048672944 -0.065797776 -0.041537534 0.031093284 -0.023775224 0.058857948
0.04617536 0.003998533 0.043206945 -0.04673635 -0.025646895 -0.049471784 0.005722739 0.052910104
-0.004256405 -0.023603477 -0.039370857 -0.07481166 0.06860088 -0.075944655 0.04206928 -0.020668253
0.0096171275 -0.05744142 0.0026898086 -0.022444267 0.024517886 -0.054345705 -0.063264675 0.07264833
0.068915844 -0.051641468 -0.01350534 0.06285021 -0.07656197 0.06202236 -0.0014542937 0.0068416223
0.042829216 -0.041485157 -0.07470322 -0.066122726 -0.058790475 0.05174397 -0.018291052 0.00094567984
-0.054295853 0.044809863 -0.0027667806 0.0642385 -0.008037195 -0.03640281 -0.015837338 0.071803495
-0.06269676 0.038249247 -0.028621636 -0.049656168 0.028935827 0.058452338 -0.07114324 0.022338979
0.050640568 0.0006824434 0.0661771 -0.073913254 0.048413023 -0.06302677 -0.0145398155 -0.0067822337
-0.03146487 0.054915085 0.045354746 -0.045576084 0.064215496 -0.044802245 0.015530013 -0.016142696
0.041515835 -0.049853817 0.0041194186 0.06247352 -0.018582366 -0.013118789 -0.00055506825 0.042634092
-0.03359013 0.05682993 0.052408367 -0.009322785 -0.01345434 -0.023959663 -0.067036614 0.004386306
0.00057471544 -0.0044369474 -0.014953338 0.07649061 -0.0337166 -0.016590755 0.021455199 -0.055045933
0.06273341 0.011472158 0.01783631 0.017590918 0.0032437518 -0.0072631165 0.016807534 -0.073125206
-0.0062426627 -0.058869846 0.05011539 0.0034305155 0.029446028 -0.015800532 -0.0062741563 0.07055691
-0.0018718019 0.040295854 -0.026522446 0.068434104 0.03636346 0.039482236 0.040550567 0.06421329
0.06085506 0.037482545 -0.057570823 0.024316914 -0.06429048 0.061886817 -0.020076748 0.009354614
0.010750435 -0.049725667 0.0027510226 -0.042189185 0.039037034 -0.032150857 0.02114565 -0.06630454
-0.05291586 0.056340724 -0.05705212 0.010180056 0.059367284 0.0385777 0.016647652 0.07302959
-0.021778371 0.011489667 0.06582984 -0.037665136 -0.017203867 0.06746462 -0.076346375 -0.0075489134
-0.04579744 0.053004473 0.033430837 -0.023389317 -0.060581207 -0.048215657 0.02217219 -0.04793008
0.015398927 0.031166859 0.009628713 -0.008640327 -0.06965312 0.060327113 0.071562454 0.028572671
