deepchem/models/tests/assets/molgan_encoder_layer_op.npy (npy, 640 bytes, 1 tensors)

array f4 [1, 128]
000000 af 7f 62 3f ec 00 6a bf a0 6d 7e 3f 21 f5 7f 3f
       0.8847608 -0.91407657 0.99386024 0.9998341
000010 8b 70 7f 3f fd ba 26 bf b9 6a 7f bf 00 f9 7d 3f
       0.997811 -0.6512907 -0.9977222 0.9920807
000020 e0 11 e2 3e 57 87 59 bf d1 b2 4d bf eb ff 52 be
       0.44154263 -0.8497214 -0.8035098 -0.20605437
000030 e2 df 77 3f ad 9f 4c 3f a6 c8 70 bf 4e 4b 2f 3f
       0.96825993 0.79931146 -0.94056165 0.6847428
000040 43 2a 28 3f c0 d4 b4 be 24 44 54 bf 7e 86 17 3f
       0.65689486 -0.35318565 -0.82916474 0.59189594
000050 bf fe 7f 3f 9d ee 7f 3f b9 ec c4 be af 4c 7f bf
       0.99998087 0.9997347 -0.38461855 -0.99726385
000060 97 01 5b bf f8 94 7d bf 86 39 7e 3f ad 5c 49 3f
       -0.855493 -0.99055433 0.99306524 0.78657037
000070 81 3a 7e 3f e3 0e e3 3e 6e 79 53 3f a4 b5 7e bf
       0.9930802 0.44347295 0.8260716 -0.9949591
000080 2f 0d 38 3f 1f bf 46 3f 76 3d 7f bf ed f6 1b bf
       0.71895117 0.7763538 -0.99703157 -0.60923654
000090 0e 7d 7f bf 64 fe 7f 3f 55 69 56 bf 51 3f 7f bf
       -0.99800193 0.99997544 -0.83754474 -0.9970599
0000a0 b5 ee 7f 3f 6f d9 00 bf 66 fa 7f 3f 3e 6e 57 bd
       0.99973613 -0.5033178 0.9999145 -0.05259537
0000b0 c5 fc 77 bf 1d 17 7d 3f 4a 8e e8 3d a4 a8 7e 3f
       -0.9687007 0.98863393 0.113552645 0.99476075
0000c0 4d 39 7f 3f 76 61 18 3f 7e fa 7f 3f 53 d9 7d 3f
       0.9969681 0.59523714 0.99991596 0.99159735
0000d0 dc 9c 6f 3f 35 4c 7a bf 30 0e bf 3e 2b 80 7f bf
       0.93598723 -0.9777253 0.37315512 -0.99804944
0000e0 94 0f 7f 3f 26 c9 7f 3f 28 1a 34 3f 67 49 7e 3f
       0.99633145 0.99916303 0.7035241 0.99330753
0000f0 c7 1e 76 bf f4 b7 7e bf e6 88 37 3f d2 db 76 3f
       -0.9614071 -0.9949944 0.71693265 0.9642917
000100 78 c6 7d 3f be e2 7a 3f e6 7b 60 bf 31 ef de be
       0.99130964 0.9800223 -0.87689054 -0.43541864
000110 e0 57 f2 3e 42 ba 4e bf c4 1d 7e bf ac eb 7f 3f
       0.47332668 -0.80752957 -0.9926417 0.9996898
000120 fa 5a aa be c9 ff 7f 3f 19 31 7e 3f ab 4a 76 3f
       -0.33272535 0.9999967 0.9929367 0.96207684
000130 9a fd 35 3e a9 71 7c bf 0b c0 7f bf 2b ff 7e bf
       0.17772523 -0.9861093 -0.9990241 -0.99608105
000140 38 f8 7a bf 78 c2 7b bf 0f 43 7f bf c4 ad bd 3e
       -0.98035 -0.9834361 -0.997117 0.37046635
000150 1c f2 70 3f c8 f9 78 3f 52 43 33 3f 57 ff 7f bf
       0.9411943 0.97256136 0.700246 -0.9999899
000160 37 e1 7e 3f 12 48 2c bf 9e 8a 19 3f 0e fd 7f bf
       0.995624 -0.6729747 0.5997714 -0.99995506
000170 83 d1 7f bf 96 ad 57 3e 45 72 78 3f 81 12 73 bf
       -0.99929065 0.21062312 0.9704936 -0.9495011
000180 1f d8 7f bf a9 b1 79 bf 2a f6 6a bf a3 e0 7f 3f
       -0.9993915 -0.9753671 -0.91781867 0.99952143
000190 96 13 70 bf a1 6a 7e bf 49 3e 7b 3f 47 32 7f 3f
       -0.93779886 -0.9938145 0.98141915 0.9968609
0001a0 40 f9 7f 3f be 0a 56 3f 3f e0 7b 3f 4a fb 7a 3f
       0.999897 0.8361014 0.9838905 0.98039687
0001b0 e4 f2 7f bf a1 ff 7f 3f d9 29 8f 3e 22 3e 67 3f
       -0.99979997 0.99999434 0.27961615 0.9032918
0001c0 50 f3 7f 3f 8b fd 7f 3f 01 f2 74 3f 6e 5d 70 bf
       0.9998064 0.9999625 0.9568177 -0.9389256
0001d0 0c a6 3c bf dd f3 7f bf 3b 78 7e bf 41 a5 7f bf
       -0.7369087 -0.9998148 -0.9940221 -0.9986153
0001e0 e0 49 18 bf ef 23 7f 3f 61 70 0d 3f fa b0 7d 3f
       -0.59487724 0.99664205 0.552496 0.9909817
0001f0 9e 1d 33 3f 15 e9 7e bf d7 df f2 be 9a 80 4d bf
       0.6996707 -0.99574405 -0.474364 -0.80274355
