deepchem/models/tests/assets/molgan_agg_layer_op.npy (npy, 640 bytes, 1 tensors)

array f4 [1, 128]
0.96393275 0.09300178 0.94471174 -0.057261992 -0.87569094 -0.983284 -0.7754378 0.946405
-0.9949577 0.93239427 0.10777297 0.87907934 0.9777665 0.61511 -0.9617007 0.40416622
-0.95465606 0.96783185 -0.28960645 0.065017514 0.42495874 -0.99451756 0.4605006 -0.7249624
0.99887645 0.8320265 0.8792785 0.8325682 0.858093 0.99851245 0.979163 -0.7881734
-0.7058898 -0.9364599 0.27576566 -0.99923813 -0.026148675 0.99847007 0.2746245 -0.9831413
0.99955326 0.9888939 -0.9100344 -0.9941949 -0.55663884 0.008975375 -0.9781635 -0.71862274
-0.41111982 0.20410228 0.36997646 -0.4136421 0.5498105 0.9777188 -0.68337584 0.3718625
-0.9978079 -0.89740086 -0.97391534 0.952452 -0.9878137 0.84808785 -0.9394721 0.6818909
-0.07933992 0.08604034 -0.9696152 0.8899942 -0.9648432 -0.9930219 -0.55423474 -0.73897713
0.9575001 -0.95554364 0.32408747 0.8518517 0.9194675 0.8979 0.88218474 -0.9897714
0.9512992 0.47402528 0.7952227 0.6643418 -0.9881571 0.62214255 -0.8590708 -0.8716973
0.21694495 -0.03786289 0.34851977 0.055390317 0.26332426 -0.8222193 -0.976342 0.9979973
0.615886 -0.96183395 -0.98241764 0.9631102 -0.96673423 0.99494725 0.07103392 0.9854908
-0.73559994 -0.99996006 -0.98042005 -0.054387648 -0.9970259 -0.47505483 -0.97231776 -0.83182395
-0.9987547 -0.5554653 -0.14858437 -0.29227066 -0.46061772 0.7448181 0.67469823 0.8657879
0.73892725 -0.25578287 0.7426851 -0.5915424 -0.84003323 0.9749466 -0.6758284 -0.9991683
00000000: 4cc4 763f b877 be3d a1d8 713f 8d8b 6abd
00000010: 482d 60bf 80b8 7bbf 1783 46bf 9947 723f
00000020: 8cb5 7ebf 64b1 6e3f 13b8 dc3d 580b 613f
00000030: e84e 7a3f d977 1d3f 0432 76bf e0ee ce3e
00000040: 5764 74bf d4c3 773f 4c47 94be e727 853d
00000050: 3194 d93e b498 7ebf bcc6 eb3e 2397 39bf
00000060: 5eb6 7f3f b0ff 543f 6518 613f 3123 553f
00000070: fcab 5b3f 839e 7f3f 6daa 7a3f bbc5 49bf
00000080: 32b5 34bf d6bb 6fbf 2831 8d3e 12ce 7fbf
00000090: bf35 d6bc bc9b 7f3f 959b 8c3e 26af 7bbf
000000a0: b9e2 7f3f 2728 7d3f 04f8 68bf 8f83 7ebf
000000b0: e27f 0ebf 740d 133c ec68 7abf a9f7 37bf
000000c0: 4c7e d2be 3000 513e 8e6d bd3e e6c8 d3be
000000d0: 62c0 0c3f c74b 7a3f b8f1 2ebf c364 be3e
000000e0: 5770 7fbf 10bc 65bf 8452 79bf e5d3 733f
000000f0: 5ce1 7cbf 491c 593f 3e81 70bf 6790 2e3f
00000100: f87c a2bd eb35 b03d b438 78bf a9d6 633f
00000110: f7ff 76bf af36 7ebf 54e2 0dbf 9b2d 3dbf
00000120: ba1e 753f 829e 74bf cbee a53e f412 5a3f
00000130: 3962 6b3f c6dc 653f dcd6 613f a961 7dbf
00000140: 5888 733f 71b3 f23e b793 4b3f 4e12 2a3f
00000150: ddf7 7cbf bc44 1f3f 10ec 5bbf 8e27 5fbf
00000160: d126 5e3e 1e16 1bbd 2f71 b23e f5e0 623d
00000170: 70d2 863e f77c 52bf 8df1 79bf c07c 7f3f
00000180: b4aa 1d3f c03a 76bf b97f 7bbf 648e 763f
00000190: e57b 77bf ddb4 7e3f 3b7a 913d 2049 7c3f
000001a0: 4750 3cbf 62fd 7fbf cffc 7abf 95c5 5ebd
000001b0: 173d 7fbf 633a f3be d1e9 78bf 6af2 54bf
000001c0: 63ae 7fbf f932 0ebf 8026 18be 80a4 95be
000001d0: 16d6 ebbe 66ac 3e3f 06b9 2c3f 47a4 5d3f
000001e0: 562a 3d3f f9f5 82be 9c20 3e3f 536f 17bf
000001f0: 6b0c 57bf 1a96 793f 1703 2dbf 7ec9 7fbf
