deepchem/models/tests/assets/molgan_multi_conv_layer_op.npy (npy, 2432 bytes, 1 tensors)

array f4 [1, 9, 64]
00000000: 76e2 7f3f 0000 80bf 0000 80bf 59b4 7e3f
00000010: 44a8 7f3f 361d 6d3f edfe 7f3f 3b38 723f
00000020: 0000 80bf c7ff 7f3f 0000 803f 87ac 783f
00000030: 63f7 7f3f 0000 80bf 50ea 763f eeff 7f3f
00000040: caff 7f3f 0000 803f 0000 80bf 34fb 23be
00000050: 44c8 7f3f 0000 803f 75eb 7fbf 0000 803f
00000060: 22d2 7f3f 2cff 7f3f a0dd 243f c0dc 7d3f
00000070: 0000 80bf 2e36 7f3f 0000 80bf 30ff 7f3f
00000080: dea8 c43c 0000 80bf cd6f 513f abc7 793f
00000090: 0000 803f 26ef 313f 0000 803f 0000 80bf
000000a0: 0000 803f 8c11 713f c2ca 693f 9ac2 66bf
000000b0: f78a 54bf 0000 80bf 0000 803f 0000 80bf
000000c0: a2ff 7fbf 5600 3a3f 0000 80bf 97e6 7fbf
000000d0: 46cd 7f3f b3ff 7f3f a99c 4f3f 7681 9fbc
000000e0: 0000 803f 0000 803f f8ff 7f3f b84c 9d3e
000000f0: 0000 803f 4e4a 7fbf 0000 80bf 0000 80bf
00000100: d9ff 7f3f 0000 80bf 0000 80bf ef42 6b3f
00000110: 9398 743f 97a3 7f3f defe 7f3f 16bf 7f3f
00000120: 0000 80bf abff 7f3f feff 7f3f 0456 013f
00000130: c975 7f3f 0000 80bf 653f 623f 0000 803f
00000140: abff 7f3f 0000 803f 0000 80bf 6470 7e3f
00000150: 6bf4 7f3f 0000 803f 085f 4bbf 0000 803f
00000160: a0f3 7f3f fffd 7f3f 6fab c73e dc49 51bf
00000170: 0000 80bf dd9a 7e3f 0000 80bf fbfd 7f3f
00000180: 9888 7cbf 0000 80bf b222 72bf b8ff 7f3f
00000190: 0000 803f a716 13bf 0000 803f 0000 80bf
000001a0: 0000 803f 883e f8be 83c9 71bf ffee 4a3e
000001b0: 57f1 7fbf 0000 80bf 0000 803f 0000 80bf
000001c0: 28ff 7fbf 84da 7f3f 0000 80bf f0c8 7fbf
000001d0: 4cfc 7f3f 1b96 7d3f 9689 7f3f 0a8a 65bf
000001e0: 16ff 7f3f 0000 803f 0000 803f 5ae9 7f3f
000001f0: 0000 803f 3edf 64bf 0000 80bf 0000 80bf
00000200: bff4 7f3f 0000 80bf 0000 80bf 123d 7e3f
00000210: 1108 7f3f 92da 773f acff 7f3f b126 5a3f
00000220: 0000 80bf e7fe 7f3f 0000 803f 19d9 7d3f
00000230: 905e 7f3f 0000 80bf 8c30 763f 0000 803f
00000240: e8ff 7f3f 0000 803f 0000 80bf 0eb6 623f
00000250: 2aba 7f3f 0000 803f 5d5c 7fbf 0000 803f
00000260: 8aba 7f3f 52fd 7f3f eba3 3ebe 7010 5b3f
00000270: 0000 80bf 5ab1 7f3f 0000 80bf a8ff 7f3f
00000280: 0047 4cbf 0000 80bf 5642 043e add1 7f3f
00000290: 0000 803f 2633 1a3f 0000 803f 0000 80bf
000002a0: 0000 803f 9384 6a3f 0f95 d43e 9a77 163f
000002b0: da3a 73bf 0000 80bf 0000 803f 0000 80bf
000002c0: dcfe 7fbf a5b1 773f 0000 80bf 01aa 7fbf
000002d0: 33f9 7f3f 50fe 7f3f 2601 743f fc32 a13e
000002e0: 0000 803f 0000 803f f0ff 7f3f 2ef5 303f
000002f0: 0000 803f 7e36 7fbf 0000 80bf 0000 80bf
00000300: eeb2 7f3f 0000 80bf 0000 80bf ee96 7d3f
00000310: 3e30 7c3f 8625 683f a9fa 7f3f 1f11 4f3f
00000320: 0000 80bf 7afb 7f3f cdff 7f3f e347 7e3f
00000330: 339f 7f3f 0000 80bf ca3b 7a3f ccff 7f3f
00000340: e8fe 7f3f 0000 803f 0000 80bf 63a7 08be
00000350: 2087 7f3f f7ff 7f3f 28d9 7fbf fbff 7f3f
00000360: c676 7f3f 67f5 7f3f 9b82 dc3e e032 613f
00000370: 0000 80bf 6779 793f 0000 80bf c4f9 7f3f
00000380: 110a 29bf 0000 80bf 03cc 2c3f 41f8 7c3f
00000390: 0000 803f e1ae e03e f2ff 7f3f 0000 80bf
000003a0: 0000 803f 60b9 6d3f 7cdb 4b3f 53e3 2abf
000003b0: 06f7 53be 0000 80bf 0000 803f beff 7fbf
000003c0: 79fb 7fbf da17 433f 0000 80bf b447 7ebf
000003d0: 767b 7f3f fffe 7f3f 17e5 4b3f 088e a43e
000003e0: eeff 7f3f 0000 803f 67fe 7f3f d727 ab3d
000003f0: 0000 803f 187a 7fbf 0000 80bf 0000 80bf
0.99954927 -1.0 -1.0 0.9949394 0.9986613 0.926227 0.9999836 0.9461705
-1.0 0.9999966 1.0 0.97138256 0.9998686 -1.0 0.9645128 0.9999989
0.9999968 1.0 -1.0 -0.16013795 0.99914956 1.0 -0.99968654 1.0
0.9993001 0.99998736 0.6440067 0.9916496 -1.0 0.99692047 -1.0 0.9999876
0.024006303 -1.0 0.8181122 0.97570294 1.0 0.69505537 1.0 -1.0
1.0 0.941674 0.9132501 -0.9014069 -0.83024544 -1.0 1.0 -1.0
-0.9999944 0.7265676 -1.0 -0.9996123 0.999226 0.9999954 0.8109842 -0.019470911
1.0 1.0 0.9999995 0.30722594 1.0 -0.99722755 -1.0 -1.0
0.9999977 -1.0 -1.0 0.9189901 0.9554531 0.99858993 0.9999827 0.9990095
-1.0 0.99999493 0.9999999 0.50521874 0.997891 -1.0 0.8837798 1.0
0.99999493 1.0 -1.0 0.99390244 0.9998233 1.0 -0.7944188 1.0
0.9998112 0.9999694 0.3899798 -0.81753325 -1.0 0.9945505 -1.0 0.9999692
-0.98645926 -1.0 -0.9458419 0.9999957 1.0 -0.5745644 1.0 -1.0
1.0 -0.48485208 -0.9444811 0.19817732 -0.9997763 -1.0 1.0 -1.0
-0.9999871 0.99942803 -1.0 -0.9991598 0.9999435 0.9905717 0.99819314 -0.89663756
0.99998605 1.0 1.0 0.9996544 1.0 -0.8940314 -1.0 -1.0
0.9998283 -1.0 -1.0 0.99311936 0.99621683 0.96817887 0.999995 0.8521529
-1.0 0.99998325 1.0 0.9915939 0.99753666 -1.0 0.96167827 1.0
0.99999857 1.0 -1.0 0.88559043 0.9989344 1.0 -0.9975031 1.0
0.9989401 0.9999591 -0.18617217 0.85571957 -1.0 0.9987999 -1.0 0.99999475
-0.7979584 -1.0 0.1291593 0.99929315 1.0 0.60234296 1.0 -1.0
1.0 0.9160854 0.41519973 0.5877625 -0.95011675 -1.0 1.0 -1.0
-0.9999826 0.9675544 -1.0 -0.9986878 0.9998962 0.99997425 0.9531425 0.3148421
1.0 1.0 0.99999905 0.69124115 1.0 -0.99692523 -1.0 -1.0
0.998824 -1.0 -1.0 0.99058425 0.9851111 0.90682256 0.9999185 0.808855
-1.0 0.999931 0.99999696 0.9932844 0.99852294 -1.0 0.9774748 0.9999969
0.9999833 1.0 -1.0 -0.13345103 0.9981556 0.99999946 -0.9994073 0.9999997
0.9979061 0.9998383 0.43068394 0.87968254 -1.0 0.9745087 -1.0 0.9999049
-0.66030985 -1.0 0.674988 0.98816305 1.0 0.43883422 0.99999917 -1.0
1.0 0.92860985 0.7963178 -0.6675312 -0.206997 -1.0 1.0 -0.99999607
-0.9999309 0.7620827 -1.0 -0.9932816 0.9979776 0.9999847 0.7964644 0.3213961
0.9999989 1.0 0.9999756 0.08357208 1.0 -0.99795675 -1.0 -1.0
