deepchem/models/tests/assets/molgan_conv_layer_op.npy (npy, 4736 bytes, 1 tensors)

array f4 [1, 9, 128]
0	0xbd93e3ab	-0.072211586
1	0xbf7ea89d	-0.99476033
2	0x3ee4bd69	0.44675758
3	0xbea84e39	-0.3287218
4	0x3e6ada4c	0.22934836
5	0xbf06a0de	-0.52589214
6	0xbf62ed88	-0.88643694
7	0xbf4c79b9	-0.79873234
8	0xbf3d003f	-0.738285
9	0xbf609cb5	-0.87739116
10	0xbf737387	-0.95098156
11	0xbf17e9db	-0.5934121
12	0xbeffa9a7	-0.49934122
13	0x3ec2aff9	0.3802488
14	0xbf0d0fd5	-0.5510228
15	0x3f7efcac	0.99604297
16	0x3dacaa63	0.08430936
17	0xbf1fd428	-0.624331
18	0xbf01dea3	-0.5073034
19	0x3f5acb61	0.8546658
20	0x3f41166f	0.75424856
21	0xbea372b7	-0.31923458
22	0xbf54e9ee	-0.8316945
23	0xbf4b7c18	-0.7948623
24	0x3f08308b	0.5319907
25	0xbf6c6cc8	-0.92353487
26	0x3f01146d	0.5042179
27	0xbf70f294	-0.94120145
28	0x3e9d381b	0.30706868
29	0xbf6a5ac4	-0.9154475
30	0x3f55a08a	0.8344809
31	0x3f586f31	0.84544665
32	0x3f4d0e02	0.800995
33	0x3f783834	0.9696076
34	0x3e4cdc78	0.20005977
35	0xbf624d36	-0.88399065
36	0xbf66620e	-0.8999337
37	0x3f430372	0.7617713
38	0x3dee3f1c	0.11633131
39	0xbf7004e5	-0.9375747
40	0x3f4c9b76	0.79924715
41	0xbf695221	-0.91140944
42	0xbf3ea7b7	-0.7447466
43	0x3e2754ba	0.16340914
44	0x3f798c10	0.97479343
45	0x3ea2f4c0	0.31827354
46	0xbe9250f7	-0.28577396
47	0xbf4fa124	-0.81105256
48	0x3f100313	0.5625469
49	0xbf5987b1	-0.84972674
50	0x3c20655b	0.00978979
51	0x3e8ea736	0.27861947
52	0x3f7c3359	0.9851585
53	0x3f6f2e81	0.93430334
54	0x3f109cc0	0.5648918
55	0xbd4ec5cf	-0.050481614
56	0xbea721ce	-0.32642978
57	0x3f385736	0.72008073
58	0xbf4d931f	-0.80302614
59	0xbf59947f	-0.8499221
60	0x3f29960b	0.6624457
61	0xbf69b05f	-0.91284746
62	0xbf7a8823	-0.9786398
63	0x3e33a4bf	0.17543314
64	0xbf4ecf54	-0.8078511
65	0xbf019737	-0.5062136
66	0x3f35223d	0.7075537
67	0xbf14e3e9	-0.58160263
68	0x3f2b0c98	0.6681609
69	0xbf792d2b	-0.97334546
70	0x3f1e49e8	0.6183152
71	0x3f7b3b8c	0.98137736
72	0x3f7f2839	0.9967075
73	0xbf2bc354	-0.6709492
74	0xbf71528b	-0.94266576
75	0xbf7d7127	-0.9900078
76	0x3f7af2fc	0.98027015
77	0x3f67524b	0.90359944
78	0x3f5378de	0.82606304
79	0xbebcfd15	-0.36911836
80	0x3c0c941d	0.008580235
81	0xbe7a1187	-0.24420749
82	0xbe91b3e1	-0.2845755
83	0x3f6f1163	0.93385905
84	0xbf3eb717	-0.7449812
85	0xbf73bcfd	-0.9521025
86	0x3f6ae1b9	0.91750675
87	0xbf7dedab	-0.9919078
88	0xbe34f4bc	-0.17671484
89	0xbf6c160d	-0.92221147
90	0x3f4bf694	0.79673123
91	0xbe9820de	-0.29712576
92	0xbf7e7b67	-0.9940705
93	0xbd49c62c	-0.049261257
94	0x3e8c4af1	0.27400926
95	0xbf43c0a0	-0.764658
96	0xbf7705c0	-0.9649315
97	0x3f7fed30	0.99971294
98	0xbd890cef	-0.0669192
99	0xbf7480ad	-0.95508844
100	0x3f102a20	0.5631428
101	0x3f7b3eba	0.9814259
102	0x3ed8b7ef	0.4232783
103	0x3f79222b	0.9731776
104	0x3dfc5f8a	0.1232291
105	0x3ea52cbd	0.32260695
106	0xbf7aff52	-0.9804584
107	0x3f2a7308	0.66581774
108	0xbf7fdf1a	-0.999498
109	0x3f1db314	0.61601377
110	0x3f671cef	0.90278524
111	0xbef7e262	-0.48414904
112	0x3daadcc5	0.0834289
113	0xbf7dbe02	-0.99118054
114	0xbf1cec0b	-0.61297673
115	0xbf7af568	-0.9803071
116	0xbf089b29	-0.53361756
117	0xbf77d8ab	-0.96814984
118	0x3f632cf0	0.88740444
119	0xbf7c256e	-0.98494613
120	0xbe95c44f	-0.29251334
121	0x3f6af865	0.9178527
122	0x3f7d0ceb	0.98847836
123	0xbeef8d8e	-0.46787685
124	0xbf678bd8	-0.9044776
125	0x3f7fa5d5	0.99862415
126	0x3e5123da	0.20423833
127	0xbe3a4bdf	-0.18193005
128	0xbe18c61a	-0.1491932
129	0xbf7a57ac	-0.97790027
130	0x3f2ff764	0.68736863
131	0xbf4c5148	-0.79811525
132	0x3f2321a0	0.6372318
133	0xbf1b2d60	-0.6061611
134	0xbf3f934f	-0.7483415
135	0xbea97e71	-0.3310428
136	0xbec0a9f1	-0.37629655
137	0xbf6fbd60	-0.9364834
138	0xbf7a939c	-0.97881484
139	0xbece9076	-0.4034459
140	0xbe7918d9	-0.24325885
141	0x3ef377e0	0.47552395
142	0xbed98e6f	-0.4249148
143	0x3f7f8aef	0.9982137
144	0xbe2cbf40	-0.16869831
145	0xbf475965	-0.7787078
146	0xbee00d49	-0.43760136
147	0x3eb5fb9c	0.35543525
148	0x3f4714cf	0.77766126
149	0xbd92c6f3	-0.07166853
150	0xbf6b2830	-0.91858196
151	0xbf69ef8f	-0.9138116
152	0xbd1b17ba	-0.037864424
153	0xbf7bf24e	-0.984166
154	0x3f5045ea	0.8135668
155	0xbf6ed5db	-0.9329507
156	0xbe14a703	-0.14516835
157	0xbf6e110a	-0.9299475
158	0x3f42ab49	0.7604261
159	0x3f723373	0.94609755
160	0x3f47f1b9	0.78103215
161	0x3f7db64a	0.99106276
162	0xbe6d76b8	-0.23189819
163	0xbf51474b	-0.8174941
164	0xbf596638	-0.849216
165	0x3f58c752	0.8467914
166	0x3f03d419	0.5149551
167	0xbf73d5eb	-0.9524829
168	0x3f4f084c	0.80872035
169	0xbf738491	-0.95124155
170	0xbeaf3b12	-0.34224755
171	0x3eb41f39	0.3518007
172	0x3f7e09c2	0.9923364
173	0xbea584ae	-0.3232779
174	0x3db99b34	0.09062806
175	0xbf6309b7	-0.886867
176	0x3ef5ccb8	0.4800775
177	0xbf75753c	-0.9588201
178	0xbf2e63ab	-0.6812083
179	0x3d6680c9	0.056275163
180	0x3f7e36c3	0.9930231
181	0x3f2185e3	0.6309492
182	0x3e5fe0d8	0.21863115
183	0x3f2a308d	0.6648033
184	0xbeb8aea5	-0.36070743
185	0x3f2acbdd	0.6671732
186	0xbf580159	-0.84377056
187	0xbf7c5859	-0.9857231
188	0x3efe207b	0.49634156
189	0xbf6b47c8	-0.91906404
190	0xbf7cc44d	-0.9873703
191	0xbead3f1f	-0.3383722
192	0xbf467209	-0.77517754
193	0x3ec3e248	0.38258576
194	0x3ebdc78c	0.37066305
195	0xbf4f8705	-0.810654
196	0x3f674bed	0.9035023
197	0xbf7e46b4	-0.99326634
198	0x3f2c820c	0.67385936
199	0x3f773b45	0.96574813
200	0x3f7e751b	0.9939744
201	0xbf51cc45	-0.81952316
202	0xbf5c540d	-0.8606575
203	0xbf7f4661	-0.99716765
204	0x3f7a2000	0.9770508
205	0x3f745290	0.9543848
206	0x3f65efd3	0.8981907
207	0xbedaee07	-0.42759725
208	0xbf48335c	-0.7820337
209	0xbf085d66	-0.53267515
210	0xbebb485c	-0.36578643
211	0x3f5e4620	0.8682575
212	0xbf42fa6f	-0.7616338
213	0xbf74d143	-0.9563181
214	0x3f7a132e	0.97685516
215	0xbf7eda77	-0.995521
216	0xbf214632	-0.62997735
217	0xbf5bc3d0	-0.8584566
218	0x3e152453	0.14564638
219	0xbea380f0	-0.3193431
220	0xbf7f8fdf	-0.99828905
221	0xbdc9ac26	-0.09847288
222	0xbf198fc8	-0.5998502
223	0xbf4fa5b5	-0.81112224
224	0xbf7b9e66	-0.9828857
225	0x3f7ff038	0.9997592
226	0xbd6c3a07	-0.057672527
227	0xbf6e2d61	-0.9303799
228	0x3edc2312	0.42995507
229	0x3f7e1084	0.9924395
230	0xbd73e5c7	-0.059545305
231	0x3f73a148	0.9516797
232	0x3dbc9aba	0.09209199
233	0xbf06b673	-0.52622145
234	0xbf790bfb	-0.97283906
235	0x3f4fa4ce	0.81110847
236	0xbf7fddfb	-0.9994809
237	0x3e84b3a3	0.25918302
238	0x3f5e3598	0.8680053
239	0xbf49ce8f	-0.7883081
240	0x3d7717ab	0.060325306
241	0xbf7c414d	-0.9853714
242	0xbd3637d5	-0.04448684
243	0xbf7c53fe	-0.9856566
244	0xbf32fd85	-0.6991809
245	0xbf75db4f	-0.96037763
246	0x3f4419b3	0.76601714
247	0xbf780379	-0.968803
248	0xbdb12122	-0.08648898
249	0x3f794109	0.9736486
250	0x3f7f59a7	0.99746174
251	0xbf480019	-0.7812515
252	0xbf77435a	-0.96587145
253	0x3f7fcfe8	0.99926615
254	0x3e166959	0.14688624
255	0x3d58bea2	0.052916177
