deepchem/models/tests/assets/reshapedense_weights.npy (npy, 4224 bytes, 1 tensors)

array f4 [256, 4]
000000 38 04 04 3e 13 85 85 bd fa 2e 11 bd c0 29 57 3d
       0.12892234 -0.065195225 -0.03544519 0.05253005
000010 dc a7 f7 bc fe a8 8b 3d c0 ba 04 bb ea 3a 16 be
       -0.030231409 0.06819342 -0.0020252913 -0.14670911
000020 c4 4d 6c bd 08 75 ff 3d 80 17 a6 3b 94 ed 2c 3d
       -0.05769135 0.12473494 0.0050687194 0.04221876
000030 08 aa 25 bd 2a c6 16 3e 80 f1 af bc 98 ce 15 3d
       -0.040445358 0.14724031 -0.02147746 0.036573976
000040 84 95 ca 3d 70 cd 33 bc dc ba 92 3d ae 7a 09 bd
       0.09891799 -0.010974273 0.07164547 -0.033564262
000050 ac 51 ae 3d 10 b5 10 3d 74 a5 70 3d 20 5e 0f bc
       0.085116714 0.035328925 0.05875154 -0.0087504685
000060 1c 0c ea 3d 60 cd 0b 3d 80 28 b8 bc 70 a1 59 bd
       0.11428091 0.034131408 -0.02248025 -0.053132474
000070 e0 48 ce bc 10 76 d6 bd 34 3a fb 3d de b5 b9 bd
       -0.025181234 -0.104717374 0.12266961 -0.090678915
000080 50 41 cc 3d 45 c3 9e bd ba 7e bf 3d bc ec d3 3d
       0.09973395 -0.077520885 0.09350343 0.10347888
000090 c6 75 94 3d 68 a1 83 3d 00 78 47 ba 91 e1 06 be
       0.07249026 0.0642727 -0.0007609129 -0.13171984
0000a0 e0 18 06 3e 08 c3 cf bc 48 de f0 3d 00 12 1f 3a
       0.13095427 -0.025361553 0.11761147 0.0006068051
0000b0 0a 8c 61 bd 68 e0 20 3d 50 6c 0a 3e e8 f8 ed 3c
       -0.055065192 0.03927651 0.1351788 0.029049352
0000c0 4c 45 cc 3d 20 6e 10 bd 9f a5 8f bd e0 51 76 bd
       0.09974155 -0.035261273 -0.070140116 -0.060136676
0000d0 4a 30 31 bd d8 65 06 3e 44 4b ab 3d c0 9e 4e 3c
       -0.043258943 0.13124788 0.08363965 0.012611091
0000e0 30 51 59 3d 3a 56 a7 bd dc 9d 00 3d 64 a3 a3 3d
       0.053055942 -0.08170743 0.031400546 0.07990149
0000f0 94 ad 3f bd a2 91 95 3d 9c 67 d4 3d 40 34 36 3c
       -0.046796396 0.07303168 0.103713244 0.011120856
000100 9c 4b a4 3d 1a 97 cf bd f0 b6 07 3d 4c 0a 2b 3d
       0.08022234 -0.10136242 0.033133447 0.041757867
000110 40 52 c7 3c e0 02 53 3d b0 83 f9 3d a2 2a a7 3d
       0.024331212 0.051516414 0.121833205 0.081624284
000120 9e 58 09 3e 20 cd 88 3d fe 1e 15 be 0e 75 ad 3d
       0.13412711 0.066797495 -0.14562604 0.08469592
000130 9e 17 f4 bd 3e 98 cf bd c9 c9 f8 bd f4 58 2b bd
       -0.11918567 -0.1013646 -0.121478625 -0.04183288
000140 88 7f c7 bd 60 78 94 bb 81 d0 17 be 7e 63 8e 3d
       -0.097411215 -0.0045309514 -0.14825632 0.069525704
000150 e0 c9 45 3d 25 c3 12 be 84 7f 01 bd bd 9e 95 bd
       0.048288226 -0.14332254 -0.03161575 -0.073056675
000160 fc f4 1a 3d a8 13 14 be 00 76 f8 bb ce 97 0f 3e
       0.03783129 -0.14460623 -0.007582426 0.14022753
000170 4b 99 13 be c8 1a 7d bd da d2 a7 3d 40 08 78 3d
       -0.14413945 -0.06179312 0.081945136 0.060554743
000180 ea f0 99 bd c0 39 c2 3d 47 f0 b2 bd 74 56 52 3d
       -0.07516654 0.09483671 -0.087372355 0.05135198
000190 68 ff 9b 3c 60 8f db 3b 46 03 1c bd 20 b4 32 bc
       0.019042686 0.0067004412 -0.03808906 -0.010907203
0001a0 64 3c d3 bd 78 fb 91 3d 00 5e 6b bb 18 f2 ee bd
       -0.10314253 0.07128042 -0.0035914183 -0.116672695
0001b0 d8 04 b6 bc 38 88 bc bd 18 b1 0f 3e 78 7c cb bd
       -0.022219107 -0.09205669 0.140324 -0.0993585
0001c0 6a ac 87 bd 70 b5 d2 bc b8 b3 fc bc 9c 9d 3d 3d
       -0.06624682 -0.025721282 -0.030847415 0.046292886
0001d0 78 10 2c 3d 20 5a 3e 3c 80 6e 04 3e 5c aa 84 3d
       0.042007893 0.011618167 0.12932777 0.06477806
0001e0 40 c1 0a 3e 7a 9c 0d bd d8 c9 dd 3c 2d 54 11 be
       0.13550282 -0.034573056 0.027073786 -0.14192267
0001f0 f2 97 b0 3d ae aa cf bd 30 7c 50 3d f6 17 0d 3e
       0.08622731 -0.101399764 0.050899684 0.13778672
000200 e0 6b 6f 3d b0 67 43 3d 20 12 66 bc 56 cc 0b 3e
       0.058452487 0.047706306 -0.014042407 0.13652167
000210 c0 c7 ee 3b 3e ab 03 be 8c ce 9e bd b0 c5 ee 3d
       0.0072869956 -0.12858292 -0.077542394 0.116588
000220 f4 58 f1 bd ca 49 00 be 60 a6 35 bc f4 03 88 bd
       -0.117845446 -0.12528148 -0.01108703 -0.06641379
000230 60 1c b7 bb 00 8a b4 bb e0 3e f9 3d 80 a1 f1 3d
       -0.0055880994 -0.005509615 0.121701956 0.11798382
000240 10 a6 0c bc e2 fb c6 3d 86 2d 2d bd dd a7 88 bd
       -0.008584514 0.097160116 -0.042279743 -0.066726424
000250 ba 89 22 bd de e3 ba 3d 40 39 0f bd f4 0f 4b 3d
       -0.039682128 0.091254935 -0.034966707 0.04957576
000260 4c a1 0d be b0 d0 9d 3d 40 77 34 3b b4 03 10 3e
       -0.13831061 0.077058196 0.00275369 0.14063913
000270 f6 e2 0d be a0 4c fc bb ea 32 b6 3d 7a dc 66 bd
       -0.1385611 -0.007699564 0.0889643 -0.056362607
000280 28 39 33 3d 38 da 2e 3d c0 dc 71 3c 86 38 60 bd
       0.04375568 0.04268858 0.014762104 -0.054741405
000290 59 75 07 be b8 0d 86 3d 76 7d f5 bd ec 65 1a bd
       -0.13228358 0.065455854 -0.119868204 -0.037694857
0002a0 d8 f3 bf bc 2e fd 09 3e 28 8a 86 bc ec 0f 03 3d
       -0.023431703 0.13475487 -0.0164233 0.031997606
0002b0 99 54 14 be da 62 02 3e 88 1c db bd 96 00 0b be
       -0.14485396 0.12733021 -0.10698801 -0.13574442
0002c0 8c eb fd 3d 52 c1 0e 3e a8 cc 4f bd 20 da 90 bc
       0.123984426 0.13940933 -0.050732285 -0.017682135
0002d0 1c 29 01 3d b8 99 89 bc 6e f0 5e bd bc 75 03 be
       0.031533346 -0.016796932 -0.05442851 -0.12837881
0002e0 e8 38 3a 3d 88 9b eb 3c 98 f9 eb bd 36 9f 00 be
       0.045464426 0.028760687 -0.115222156 -0.12560734
0002f0 6a c7 9c 3d 50 c6 e2 3d 51 60 88 bd 1a e7 18 be
       0.07655223 0.11072981 -0.06658996 -0.14931908
000300 4a 6e 33 bd da c4 06 3e e6 d4 bc 3d 28 b4 7f bd
       -0.04380635 0.1316103 0.09220295 -0.06242767
000310 00 54 72 bc 48 2d e3 3d f4 d1 79 3d e0 eb 88 3b
       -0.014790535 0.11092621 0.060991243 0.004178509
000320 00 be 7e 3c ef dc b3 bd e6 f7 f7 bd 98 b6 41 3d
       0.015548229 -0.08782374 -0.1210783 0.047293276
000330 c2 50 a7 3d 18 12 a3 3c 84 12 a0 3d 9e 15 90 bd
       0.081697 0.019906089 0.078160316 -0.07035373
000340 5c bd 85 3d f8 4b f4 bc 26 0a aa 3d 34 67 40 3d
       0.06530258 -0.029821381 0.08302717 0.046973422
000350 44 b7 40 3d 00 90 d7 3c ca 54 7f bd 10 f4 04 3e
       0.047049776 0.026313782 -0.06233672 0.12983727
000360 3e fa 8b bd 16 a7 3b bd 3a 57 71 bd f8 2e a5 3c
       -0.06834839 -0.045813642 -0.058921076 0.020163998
000370 ee 6d bb bd 5c d9 a6 bd dc 78 6f bd bc f8 d5 bd
       -0.09151827 -0.08146927 -0.05846487 -0.10447833
000380 bc 93 55 bd f4 96 f1 bc 44 25 86 3d c1 a4 97 bd
       -0.052142844 -0.029490925 0.065500766 -0.07404471
000390 5a 8c 81 bd 92 f8 d1 bd 5b 9b 9c bd 27 8e 8a bd
       -0.06325598 -0.10252489 -0.07646819 -0.06765395
0003a0 f4 80 b1 3d 94 07 8f 3d 58 bb e9 bc 8a 29 0f be
       0.08667174 0.06983867 -0.028531715 -0.1398069
0003b0 c0 b4 36 bb 40 66 4a 3c 00 94 04 b9 40 a6 ff bc
       -0.0027878731 0.01235348 -0.00012643635 -0.031207204
0003c0 e4 95 54 3d 68 16 fa 3d 84 02 0a 3e e0 8d 15 bd
       0.05190076 0.12211305 0.13477522 -0.036512256
0003d0 64 5e 8c 3d f0 99 c6 3d 4c c0 1d 3d a0 1d ae 3c
       0.06853941 0.0969733 0.038513467 0.02125436
0003e0 3a 62 04 3e 86 22 8d 3d 3e dd a3 3d 6c 1b f0 3d
       0.12928095 0.068913504 0.08001183 0.1172398
0003f0 60 69 c2 3d 50 66 8f bd 08 5c 30 bd 1d 4a 17 be
       0.09492755 -0.070019364 -0.043056518 -0.14774366
