deepchem/models/tests/assets/weavelayer_W_AA_0.npy (npy, 15128 bytes, 1 tensors)

array f4 [75, 50]
00000000: 2096 1c3d 2c2a 123c c16f 91ba 9c73 b5bc
00000010: 96d6 c7bc aae1 553c 7083 0dbd 4576 7d3c
00000020: a7be 22bd 5904 b1b9 87a8 943b f8ad bdbc
00000030: b8cc 6b3d 0528 10bd c45f 48bb c096 c43c
00000040: 10dd cebc 5cdf 833c 9d65 133c f707 a73c
00000050: 5146 063d 0e57 f5bc 930b b6bc 4648 433c
00000060: 4fc8 e9bc 693d 093d e71a 0abd 4e83 a6bc
00000070: ea7f 64bc f005 733c 97a9 9e3c 4129 423d
00000080: 9955 0cbd edec 34bd 9bbd b6bc f687 bb3c
00000090: 3291 7dbc 2117 763c c45b a33c b40e fab9
000000a0: abc1 ae3c 8a81 a8bc c70e 8b3b 702b 14bc
000000b0: e111 af3b 156e e53b 9d7a 743d 7b9d d638
000000c0: 4e08 f33c 463c b6bc de66 833c 46a0 28bd
000000d0: ee1a d038 1f1e fbbc 7f4d 013c 265a f93c
000000e0: f19d 0b3d 4e23 c0bc 00ef 42bc d4d1 28bd
000000f0: 7973 0bbc 36ea 4c3d 64bd 2a3c 9ad6 95ba
00000100: ff23 e73b cb9d 103d 302a c53c bab4 2ebc
00000110: 548c 8dbc c282 70bd ce85 8cbc 1266 473c
00000120: cfe8 843b 20f0 763c 26ac 6ebc abf0 c93c
00000130: b98a f0bc 07bb 02bc b5ec 0b3c 3afd eb3b
00000140: ce94 2c3d 2cc9 85bc daf6 1e3c 58ab 763c
00000150: 03c6 ab3c ace0 263d 2f03 a6bc 71ad 6ebc
00000160: a24e da3b a304 59bd 01fa 413c aade a83b
00000170: a9cf 823b b3ae 6abb ba7a 5539 bd2c af3b
00000180: b94b 453d 0f03 dfbc 2cd5 2c3d 6c2a b83c
00000190: a143 50bb 5620 aabb e930 a93c 35eb 96bc
000001a0: 85d2 2abc ac7d 6a3d cae7 0fbd 0e96 dbbc
000001b0: 49f8 9cbc 5a69 aabb b84a 093d 864c e13c
000001c0: 7e0b 29bb 3b36 b93c 4a12 863c 921c 9bbb
000001d0: 809d 523d 7a06 8cbb 0b3f 8ebb 7c3a f9bc
000001e0: c293 333c 0452 3e3c f221 b5bc 5b3a 20bd
000001f0: 8a09 b0bc 32f8 0f3d f6a1 1a3d 959d b93c
00000200: 5240 c9bc 9c0e 02bd 3d5e 34bc af59 53bc
00000210: 5af7 bfbc ba57 f2bc 7a37 2a3d 8d23 343c
00000220: f94b 093c bc96 353c 54b8 0dbc 752d 7b3c
00000230: 0b2d be3c 2c50 183d 7d92 22bd 24b6 0d3c
00000240: 87e0 25bd 164f a1bc db61 47bd 2c54 6c3b
00000250: 2f28 27bc 6ab1 3a3d 40a1 07bd 97a6 863a
00000260: eb5e 4fbd f69d 583a 71ae ca3b 0515 4c3c
00000270: 98ef 05bc 62a3 843b 3146 7fbc f3c5 c83c
00000280: 9000 a23b 4bb4 633d d62c 20bd ee20 db3b
00000290: 6676 643b 5783 093c d228 14bd e10e 43bd
000002a0: 4e68 96bc 456b 9ebc 6fa7 37bd f059 273c
000002b0: 2324 e33b 5418 313d 8c66 c83c 889c 123c
000002c0: db21 6c3c 5f19 4fbc 87c3 e3ba 1ca0 61bd
000002d0: ef43 a73c 67ac 4dbd 3cc3 6cbd feff c2bb
000002e0: f447 a9bc b6a2 89bb aa7c b33c f41f 1f3d
000002f0: 6355 9ebc a87a cdbc 92bb 2abd 6378 12bc
00000300: 1ee9 acbc f3ab d53c e1a1 64bc 6a4e 2e3a
00000310: cbcb 5cbb 2319 3abd 6be7 ee3b e59f 32bd
00000320: b20a f5bc c82a eabc 91f5 8dbc e78d 6dbd
00000330: 3a43 4d3d 4c16 663d dd96 0eba 0795 8bbc
00000340: c723 89bc affb 903c 3d72 ca3c da09 0b3d
00000350: 2d16 5a3d 6d51 3c3d e477 823c 8bc2 79bc
00000360: 4702 c43c dc6a 433b f58a 21bd 75aa 11bd
00000370: d032 593c ace8 b8bb 5de7 0bbc 1e1e 993c
00000380: 9e82 babc 1ebb e2ba 9519 223c 7d27 5c3c
00000390: 5db8 ffbc 8732 76bc 4ec0 a03b 426f aa3b
000003a0: cc66 b03c 8ceb 0bbd a202 293c ee66 b3bc
000003b0: c66e 963c a9ee 113d ec09 1f3c 9776 bcbc
000003c0: bb3e 753d 7d35 b8bc 6b1e 683b 9a48 963c
000003d0: 2bb3 1a3d 64f8 843c 319a 4e3c 630b 593c
000003e0: 727f 29bd b3ec 4bbc 9ef9 54bc 1251 483d
000003f0: 69dd 3abd deb2 0b3d 2462 fa3b a477 c4bc
0.038229108 0.008921187 -0.0011095927 -0.022149853 -0.024394315 0.013054291 -0.034549177 0.015470092
-0.0397326 -0.0003376331 0.0045366916 -0.023154244 0.057568282 -0.035194416 -0.003057466 0.023997664
-0.025251895 0.016097717 0.008996394 0.02038954 0.032781903 -0.029948737 -0.022222316 0.011919087
-0.028537897 0.03350583 -0.033717062 -0.020326283 -0.013946513 0.014832959 0.019367976 0.047402624
-0.03426132 -0.044171263 -0.022307208 0.02289198 -0.015476512 0.015020163 0.019941218 -0.0004769467
0.021332582 -0.020569582 0.004243705 -0.009043559 0.0053427075 0.007001648 0.059687246 0.00010233648
0.029667046 -0.022245537 0.016040262 -0.041168474 9.923229e-05 -0.030654011 0.007892012 0.030438494
0.03408617 -0.023454335 -0.011897802 -0.041215733 -0.008511418 0.05002805 0.010421131 -0.0011431754
0.0070538516 0.035306733 0.024067968 -0.010663206 -0.017278828 -0.05871845 -0.017153647 0.012170332
0.0040560733 0.015071899 -0.014567411 0.024650892 -0.029363023 -0.007979161 0.008540322 0.007201818
0.0421341 -0.016331278 0.009702409 0.0150555 0.020968443 0.040741608 -0.02026519 -0.014567719
0.006662206 -0.052982938 0.011839391 0.0051534967 0.00399204 -0.0035809695 0.00020358982 0.0053459094
0.048167918 -0.027223138 0.042195484 0.022481166 -0.0031778591 -0.005191843 0.020653205 -0.018422702
-0.010426168 0.057248756 -0.03513316 -0.02680495 -0.01916136 -0.005200547 0.033518523 0.02750231
-0.0025794203 0.022608867 0.016366143 -0.0047336305 0.051419735 -0.004273233 -0.0043410114 -0.030423395
0.010960521 0.011616234 -0.022110913 -0.039118152 -0.021488924 0.035148807 0.037752114 0.022658149
-0.024566803 -0.031752214 -0.011008796 -0.0128998 -0.023433376 -0.029582847 0.041556813 0.010994804
0.00837993 0.011083301 -0.008649904 0.015330662 0.023214838 0.037185833 -0.039690483 0.008649383
-0.04049733 -0.019691031 -0.048677307 0.0036060913 -0.010202452 0.04557935 -0.033112764 0.0010273036
-0.05062763 0.0008263284 0.006185346 0.012456183 -0.008174799 0.004047797 -0.0155807 0.024508452
0.0049439147 0.055591863 -0.03910526 0.006687275 0.003486061 0.00839313 -0.03617174 -0.04762161
-0.018360283 -0.01933826 -0.04483741 0.010214314 0.006931798 0.04323609 0.02446296 0.008948453
0.014412369 -0.012640326 -0.0017376997 -0.055084333 0.020418135 -0.050213244 -0.057803378 -0.005950927
-0.020664193 -0.004200305 0.02191003 0.038848832 -0.019327825 -0.025082901 -0.041682787 -0.008939835
-0.021107253 0.026082968 -0.013954611 0.0006649258 -0.0033690806 -0.04543413 0.0072907708 -0.04360952
-0.029912326 -0.028584853 -0.01732901 -0.057996657 0.05011294 0.056173608 -0.00054393505 -0.017038835
-0.016740693 0.017698137 0.024712676 0.033944942 0.053243805 0.04597609 0.015926309 -0.015244137
0.023926867 0.0029818332 -0.03943916 -0.03556295 0.013256744 -0.005642971 -0.008539048 0.018691119
-0.022767361 -0.0017298197 0.009893795 0.013437149 -0.031215841 -0.015026695 0.004905737 0.0052012512
0.021533392 -0.034160182 0.010315569 -0.021899667 0.018363368 0.035627995 0.009706955 -0.023005767
0.059874278 -0.022486443 0.003541852 0.018345166 0.037768524 0.016231723 0.012610004 0.013247344
-0.041381307 -0.01244657 -0.0129989665 0.04890544 -0.04562131 0.034106128 0.007641094 -0.02398283
