deepchem/models/tests/assets/weavegather_weights.npy (npy, 247628 bytes, 1 tensors)

array f4 [825, 75]
000000 b3 e1 54 bd e0 a7 99 bb 3f ba 70 bd d4 88 2a bd
       -0.051973056 -0.0046892017 -0.058771368 -0.041634396
000010 f8 d9 45 bc 1e fb 0b bd a0 bd 0f bd b0 ec 28 3c
       -0.012075894 -0.03417503 -0.03509295 0.010310337
000020 84 ed 96 bd 88 88 52 3c 17 7d a1 bd 8a 42 b6 bc
       -0.07369521 0.012849934 -0.07885187 -0.022248525
000030 7e 6f 09 3d a0 d1 13 3b d4 75 4d 3d e0 35 ed bc
       0.033553593 0.0022555366 0.050161198 -0.028956354
000040 68 62 cf 3c 18 4c 89 3d a1 6b 82 bd 4c b1 4a bd
       0.025315478 0.06703967 -0.06368185 -0.04948549
000050 e4 e6 5a 3d 87 b6 a4 bd 00 bc 29 3c 3a 41 d0 bc
       0.05344285 -0.08042627 0.010359764 -0.025421727
000060 60 4c 86 bd b9 43 40 bd 28 f0 94 3d 92 30 55 bd
       -0.06557536 -0.046939585 0.07272369 -0.052048273
000070 4c 07 34 3d 00 c3 dd 39 20 58 3d bc 80 1b 45 bc
       0.04395227 0.0004229769 -0.011556655 -0.012030482
000080 94 f8 14 bd a0 d3 62 3d 8a fd 9b 3d f4 52 3f 3d
       -0.036369875 0.055377603 0.07616718 0.04670997
000090 21 44 86 bd 20 13 66 bc a8 3d 01 bc b4 ac 2b 3d
       -0.06555963 -0.014042646 -0.007888235 0.04191275
0000a0 c4 c6 9b bd 8c 45 6d 3d a8 68 19 3c ae 4f 62 bd
       -0.07606271 0.057927653 0.009363331 -0.05525177
0000b0 a0 71 2b 3c 18 40 11 bd c4 e3 ce 3c 28 69 4e 3d
       0.010464102 -0.035461515 0.025255091 0.050393254
0000c0 d4 df f0 bc 4a 74 81 bd ca 2d a2 bc 9c 2b 79 3d
       -0.029403605 -0.063210085 -0.019797225 0.060832605
0000d0 7d 7d a1 bd e0 35 3f bc 6a a0 57 bd d0 6f 68 3c
       -0.07885263 -0.01167056 -0.052643217 0.014186814
0000e0 bc b0 9e 3d 5c e1 6f 3d 23 f2 8b bd d0 47 2d 3d
       0.07748553 0.05856453 -0.06833293 0.042304814
0000f0 0c ea 71 3d 86 a9 57 bd 40 68 c5 bb 40 0f 63 3d
       0.059061095 -0.052651905 -0.0060243905 0.055434465
000100 13 0a 81 bd 18 ca 27 3c b6 83 97 3d 00 77 45 bd
       -0.0630075 0.010241054 0.07398169 -0.04820919
000110 e6 26 8b bd 34 8e 55 bd 0c c5 15 3d e8 17 94 3d
       -0.06794529 -0.05213757 0.03656487 0.07231122
000120 34 58 4f 3d 5a 38 92 3d 66 b7 a5 3d 98 0f c0 3c
       0.050621226 0.071396545 0.08091621 0.023444936
000130 dc 96 97 bd 01 7f 2b bd 06 67 8f bd d0 d7 72 3d
       -0.07401821 -0.041869167 -0.07002072 0.059287846
000140 dc 42 85 bc d4 49 71 bd c0 86 af 3b 90 19 1b bc
       -0.016267233 -0.0589083 0.0053566396 -0.009466544
000150 b0 ad 9d 3d 38 e8 b4 3c 61 68 9b bd 17 6d 9d bd
       0.07699144 0.022083387 -0.07588268 -0.07686823
000160 5a 23 a6 3d a0 35 6f bb f7 ac 50 bd 38 2c 15 bd
       0.081122115 -0.003650047 -0.050946202 -0.036419123
000170 30 7f 83 3b 0c d3 ed 3c 75 e6 9c bd 3e fc 96 3d
       0.0040129647 0.029031299 -0.07661144 0.0737233
000180 50 01 c1 bb f0 ec 6c 3d 9c c6 5f bd 59 1b a6 bd
       -0.005890049 0.05784315 -0.054632768 -0.08110685
000190 a4 5e c1 3c 6d 0a 94 bd 50 8c 4a bd 66 a4 a3 bd
       0.023604698 -0.07228551 -0.04945022 -0.07990341
0001a0 00 23 da 3b 54 02 56 3d 00 e6 53 3d 08 c5 7b 3c
       0.0066570044 0.052248314 0.051733017 0.0153668
0001b0 18 31 0b 3d 40 5a df ba d0 9c 8e bb c4 73 5b bd
       0.033982366 -0.0017040446 -0.0043521896 -0.0535772
0001c0 dc ff 8a 3c f8 24 70 3d b4 19 60 3d 68 bf dc 3c
       0.016967706 0.058629006 0.054712012 0.026946738
0001d0 41 02 a3 bd fc 5c 7f bd 5e 62 11 3d 14 cc f1 3c
       -0.07959414 -0.062344536 0.0354942 0.029516257
0001e0 e6 e9 2e 3d df ad a3 bd 70 3d 3d bd 2c 1a 62 3d
       0.04270353 -0.07992148 -0.04620117 0.05520074
0001f0 20 59 f1 3b 5c 0b 8a bc 60 8f 08 bc 6c 20 a3 bd
       0.007365361 -0.01685112 -0.0083349645 -0.07965168
000200 20 d7 b0 3b f8 a8 6b 3c 88 aa 8d bc c0 d0 7c bc
       0.0053967386 0.014383547 -0.01729323 -0.015430629
000210 ba 8c 32 bd 8e 4e 1a 3d 2c 07 77 3d f8 8d 7d bd
       -0.04359124 0.03767257 0.060309574 -0.06190297
000220 e1 e3 19 bd 4c 42 42 3d 64 64 66 3d 54 4b a1 3c
       -0.037570838 0.047426507 0.056248084 0.01968924
000230 78 af d8 3c 70 59 d0 bc 94 22 8d 3d 2c 0d 6d bd
       0.026450858 -0.025433272 0.06891361 -0.05787389
000240 4c 42 57 3d 18 7d 74 3d f0 6e 42 3c 5e ca 91 bd
       0.05255346 0.05968961 0.01186727 -0.071186766
000250 00 8d ca b9 50 27 2c bc 60 11 48 bc c0 4a f8 ba
       -0.00038633496 -0.01050742 -0.012211174 -0.0018943176
000260 ac 0d ee bc 5e bd 9b 3d 88 61 20 bc 20 f6 8d bb
       -0.029059254 0.07604478 -0.009788878 -0.004332319
000270 ad b4 41 bd 08 25 7c 3c 38 3e 90 3c 80 27 4e 3d
       -0.047291446 0.015389688 0.017607793 0.05033064
000280 4e 29 3e bd 91 2c a7 bd 22 c0 cb bc 40 8f 03 3c
       -0.04642611 -0.08162797 -0.02487189 0.008029759
000290 58 72 0a bd e6 6b 28 3d fa d9 02 3d e8 d2 a3 3d
       -0.033800453 0.041118525 0.03194616 0.079992115
0002a0 28 7f 9c 3c 90 f3 55 bc 38 e5 b6 3c 14 23 1a bd
       0.019103602 -0.013058558 0.022326097 -0.03763111
0002b0 ce 23 97 3d 47 5b 7e bd 23 b7 95 bd 74 d1 3f 3d
       0.07379876 -0.062098768 -0.07310321 0.04683061
0002c0 08 6e 4b bc 00 ff ed 3a 2f fd a3 bd f0 29 7c 3d
       -0.01241637 0.0018157661 -0.08007275 0.061563432
0002d0 38 e1 95 3d 38 79 54 3c c0 93 75 bd c8 1d 20 3d
       0.07318348 0.012968354 -0.05995536 0.0390909
0002e0 d8 ff 4f 3d a0 0a 58 bc 6c 0e e2 3c 64 5a 22 3d
       0.0507811 -0.013186127 0.027594768 0.039636984
0002f0 60 93 16 3c d3 7e 44 bd b7 be 97 bd c4 9b 94 bc
       0.00919041 -0.04797251 -0.07409423 -0.018140681
000300 40 f0 61 3b 22 6c 77 bd f4 09 99 3c 33 42 8e bd
       0.0034475476 -0.060405858 0.018681504 -0.0694622
000310 00 ac 5f 3c 84 e4 cf bc b7 64 28 bd 4c b0 42 3d
       0.013651848 -0.02537752 -0.041111674 0.04753141
000320 be 4d 17 bd 90 e2 02 bc 30 33 d2 bb 88 1d 0f bd
       -0.036939375 -0.007988587 -0.0064147934 -0.034940273
000330 f4 fd 98 bc c8 0b 1e bc ae 95 cf bc 0a 54 96 3d
       -0.018675782 -0.009646364 -0.025339928 0.07340248
000340 84 80 73 bd 14 76 f9 bc 0e 05 8e bd 44 e4 38 3d
       -0.059448734 -0.030451812 -0.06934558 0.045139566
000350 b8 f3 30 3c b2 84 df bc 04 14 36 3d 62 f9 49 bd
       0.010800295 -0.027284954 0.044452682 -0.049310096
000360 8c 50 c4 bc 04 17 80 3d 13 7f 9e bd fc 5d ef 3c
       -0.023964189 0.0625439 -0.07739081 0.02921962
000370 0a dc 05 3d eb 80 0f bd de 65 9a bd 94 1a 73 bd
       0.03268055 -0.035035055 -0.07538961 -0.05935152
000380 8c 6f d2 3c d7 e1 45 bd 27 79 37 bd 20 2e 58 bb
       0.025687955 -0.04831108 -0.044793274 -0.0032986477
000390 b4 6e 54 3d 5a 45 97 3d 63 b8 09 bd a0 a8 8f 3b
       0.051863387 0.07386275 -0.03362311 0.0043841153
0003a0 9a c0 a4 bd c6 9f 22 bd aa 53 0c 3d dc 0a a0 bd
       -0.08044548 -0.039703153 0.034259476 -0.07814571
0003b0 39 e7 a4 bd 34 d0 76 3d 17 11 37 bd 6f ff a5 bd
       -0.08051915 0.06025715 -0.044694033 -0.08105361
0003c0 ec ef a6 bd b8 b1 31 3d 20 59 62 bb 68 02 1b 3d
       -0.0815123 0.043382376 -0.0034537986 0.03784409
0003d0 e8 8f 99 3d 10 16 35 3c e0 cf 54 3b 02 44 93 bd
       0.07498151 0.011052623 0.0032472536 -0.07190706
0003e0 aa b2 11 3d 20 f2 21 3b 74 11 7e 3d 29 40 44 bd
       0.035570778 0.0024710968 0.062028363 -0.04791275
0003f0 5e f4 8e bd 6f b2 15 bd 50 07 fa bb 0a c6 90 3d
       -0.06980203 -0.03654712 -0.0076302662 0.07069023
