deepchem/models/tests/assets/weavelayer_W_PA_1.npy (npy, 2928 bytes, 1 tensors)

array f4 [14, 50]
00000000: 9d83 2b3c 04e0 8e3b d5fa c53c ff4b 05bd
00000010: fae2 a03c 539d f73c a405 a53c da8d 25bd
00000020: 20fb e13c a132 0a3d 1379 27ba 24c3 b5bc
00000030: d9b9 f43c b2aa 5d3c c706 de3c 5983 703c
00000040: d7e3 dd3b af0a 70bc 45a4 98bb 5b66 ad3c
00000050: dc1a f83c f3db 1c3c 4cca 043d 5a6c 103d
00000060: a9aa 023d 4c5d ffbc 2e0c 60bc 83a9 1dbc
00000070: 79d7 5dbc 9ec4 24bd 00f4 47bd 48e9 cc3c
00000080: fb86 b6bb 4f1e ea3b a0af 39bc 83c9 823b
00000090: 5987 c23b 4636 153c 2c37 73bc 4532 7d3c
000000a0: 2153 613c 99b8 403c ef0f 1d3c 4e71 2d3c
000000b0: 638d 29bd f77e 9b3c e774 a7bc 31fb a63c
000000c0: f23d a1bb 4a79 073c b192 4d3c a9cc dd3c
000000d0: 3d54 90bc dbf5 153d bc29 3d3c 2337 07bd
000000e0: 8974 413a 46c0 4abd c60c 42ba 7544 4f3d
000000f0: 5735 03bd d875 903c 8aaf 4d3d 300f 9abb
00000100: 1e6f 18bc 719d 32bb b4dc 193b 8635 0a3d
00000110: 3df5 49bd 6177 2dbc 2506 18bd f2d9 b23c
00000120: c5f7 a9bc 16e6 613d b7ae 8ebc 0e2d a63c
00000130: 319b 08bc ea7b 87bc a6e3 15bd 05be 393d
00000140: fda6 4b3d 1be4 0b3c 0f92 f53c ab7c 063d
00000150: edb9 643b f529 0e3d 813e 0abd 9d41 c5bc
00000160: 7412 0ebd 4265 a23c 0da0 c33c 8042 d539
00000170: 0fe9 55bd 52d0 c43c 6f21 d03b 9ee3 e1bc
00000180: 61ca d53c 3233 103d e589 c0bb 8d6b 03bd
00000190: b215 683d a005 5dbd 7924 233d 9a1a 50bc
000001a0: a68d 15bd 188a 51bb 7bb7 e03c af51 053c
000001b0: 4d39 7eb8 133c 073c 9729 ea3c 9eef 2a3d
000001c0: 5dec 5e3d 116d 8fbc 3a9f 8f3c 1d20 153c
000001d0: 243c eabc 3cbf 10bd 2292 a73b b18e 0d3c
000001e0: 9030 b4bc 5182 b53c b782 d43b d288 e13c
000001f0: d92b 04bd ed11 97bb 6ea1 d53c 24bd c8bb
00000200: d954 aebb 5fcb 90bc 348c 9f3c 6326 f7bc
00000210: 3e83 24bc f75d 0abd 8599 6abc 5d7a d23c
00000220: 849b 993a c96a d5bc 35a9 f6bb b752 afbb
00000230: b8ff 693c 65ba cabc 46cb 933b 5b0b d3bc
00000240: ee5f 9c3c 25e8 f03c ae0a 17bd 8a89 61bb
00000250: 585f 293d 67ac 8ab8 76e2 9dbb d8ce 96bc
00000260: a8bf 22ba 0f1a 0c3d 34b9 203c 27b0 af3c
00000270: 89f0 54bd ed52 3a3c 65c3 45bd acd3 803c
00000280: f139 ae3b 373b fdbc 2010 543d 707f 603c
00000290: 3e25 083d d4ad f83c d6ca ad3c c80f 813b
000002a0: b35d d6bc 3edf fd3a dc79 f9ba bd60 c43c
000002b0: c769 10bd 1774 243d 856b 36bd 41c4 ab3c
000002c0: caf4 423d e59e 943c 4eb7 653c be2b 023b
000002d0: d3af 5dbb 5bd0 80bc 23ea 023d 8b47 353d
000002e0: a1c9 613c 1cf4 7cbc 80d3 1f3d bb88 b83b
000002f0: 0557 4cbd 6d13 483b 5cc4 da3c 17b5 96bb
00000300: 87ea a53c 4448 0e3c 9e8d d5bc 94a7 f6bc
00000310: e180 bebc 6960 173c 0de6 ddbc b962 80bc
00000320: d2dc 30bd 6d49 15bd 7fae 16bc 383a e039
00000330: 093f bfbc 378d 19bd be3c 9ebb edd6 9c3c
00000340: 6a53 003d 3c4b 503d d295 25bc 8099 2dbc
00000350: 66e5 353d 9984 41bb b17a 8939 58d8 2c3c
00000360: 149b 4abd 36f9 21bd f9d7 6abc 8e3b 76bc
00000370: 7eef a83c e299 bebb 43b5 aebb b2af 653c
00000380: db85 ed3a 72ce 3fbd b0a6 e23c e9ca 88bb
00000390: 6cc8 d43c eed6 083d f58e ff3c 3393 b23b
000003a0: 9517 7bbc e5b1 5c3d b714 3a3c 137b 753d
000003b0: ecd0 9abb 9ecc 51bb 8fee 713d 6c3f 0f3d
000003c0: c4e3 923b 5c68 e6bc b587 843b d5f2 313c
000003d0: 7380 2c3a d167 9c3c 346e eabc 7707 45bb
000003e0: 1e93 4cbd c60b 163c a6bc 61bc f7c2 413d
000003f0: 7601 f13b ce1b 98bc 4382 393c 77a0 eebb
0.010468391 0.004360201 0.024167458 -0.03254318 0.01963948 0.030226385 0.020144291 -0.040418483
0.027585566 0.03373969 -0.0006388586 -0.022187777 0.029873775 0.013529466 0.027102841 0.014679753
0.0067715454 -0.014650985 -0.0046582543 0.021166971 0.030286245 0.009573924 0.032419488 0.035259582
0.031901035 -0.031172417 -0.013674779 -0.009622934 -0.013540142 -0.04022657 -0.04881668 0.02501358
-0.00557029 0.0071447263 -0.011333376 0.003991307 0.005936545 0.009107178 -0.014844697 0.01545388
0.01375273 0.0117627615 0.009586318 0.010586096 -0.041394603 0.01898144 -0.020441486 0.02038345
-0.0049207145 0.008268664 0.012547181 0.027075129 -0.017618293 0.03661142 0.011545595 -0.033011567
0.0007379731 -0.049499772 -0.0007402416 0.050602395 -0.03203329 0.017634317 0.050216235 -0.0047015175
-0.009303836 -0.0027254487 0.0023477497 0.03374245 -0.049306143 -0.010587544 -0.037115235 0.02183244
-0.020748029 0.055151068 -0.017417295 0.020285156 -0.008337782 -0.016538579 -0.036594056 0.045347232
0.0497198 0.008538271 0.029976873 0.032833736 0.003490086 0.034707982 -0.033751015 -0.024079138
-0.034685567 0.019823674 0.02388003 0.00040676072 -0.052224215 0.024025116 0.006351642 -0.027574357
0.026097478 0.035205074 -0.0058758133 -0.03208499 0.056661315 -0.053960443 0.039829705 -0.012701655
-0.03651204 -0.003197318 0.02743124 0.008137151 -6.0611685e-05 0.008254069 0.028584285 0.041732423
0.054424632 -0.017508062 0.01753198 0.009101895 -0.02859313 -0.035338625 0.005113856 0.008639977
-0.021995813 0.022156866 0.006485309 0.027531061 -0.03226838 -0.004610291 0.026077952 -0.006126063
-0.005320173 -0.0176751 0.019476034 -0.030169671 -0.010041056 -0.033781018 -0.0143188285 0.025693113
0.0011719321 -0.026051896 -0.0075274953 -0.0053504365 0.0142821595 -0.024747083 0.004510316 -0.02576225
0.019088712 0.02940757 -0.03687542 -0.0034414255 0.041350693 -6.612465e-05 -0.004818256 -0.018409178
-0.00062083686 0.03420454 0.009809781 0.0214463 -0.051987205 0.01137231 -0.048282046 0.015725933
0.0053169657 -0.030912025 0.05177319 0.0137022585 0.033238642 0.030356325 0.021214884 0.003938649
-0.026167726 0.00193689 -0.0019033509 0.02397191 -0.035257127 0.040149774 -0.044536132 0.020967605
0.04759673 0.018142173 0.014020754 0.0019862498 -0.0033826723 -0.015724352 0.03196157 0.04425768
0.013780982 -0.01543906 0.03902006 0.005631534 -0.049887676 0.0030529157 0.02670496 -0.0045992243
0.020253433 0.008684222 -0.026068505 -0.030109204 -0.023254814 0.009239295 -0.027087236 -0.015672075
-0.04317934 -0.036446977 -0.009196877 0.00042767986 -0.023345487 -0.03748819 -0.0048290184 0.019145453
0.03132955 0.050853 -0.010106521 -0.010595679 0.044408225 -0.0029528497 0.00026222088 0.010549627
-0.0494643 -0.039544307 -0.014333718 -0.015028847 0.020622011 -0.005816684 -0.0053316667 0.01401894
0.0018121557 -0.04682774 0.027667373 -0.0041745794 0.025974475 0.033408098 0.031196097 0.0054496764
-0.015325447 0.05388059 0.011357478 0.059931826 -0.0047246125 -0.003201283 0.059065398 0.034972593
0.004482718 -0.028125934 0.004044498 0.010861118 0.000658042 0.019092472 -0.028617002 -0.0030064264
-0.04994499 0.00915808 -0.013777887 0.047305074 0.0073549105 -0.018567946 0.011322561 -0.0072823125
