deepchem/models/tests/assets/weights_SetGather_tf.npy (npy, 640 bytes, 1 tensors)

array f4 [8, 16]
000000 80 3c 70 3d ce 35 f5 3b 9d a8 4d 3e f1 83 37 be
       0.058651447 0.0074832207 0.20083852 -0.17921425
000010 03 23 12 bd 14 57 3b 3e 4a f4 ff 3e 8e 2f 02 3d
       -0.03567792 0.18294936 0.49991065 0.031783633
000020 db 31 f5 3d 82 1f 8f 3b 8b 54 ef be 44 80 c9 be
       0.119724 0.0043677697 -0.4674419 -0.3935567
000030 38 4a 39 be 90 67 ac be d9 60 de bd c1 e8 9b be
       -0.18094718 -0.33672762 -0.10858316 -0.30451015
000040 27 a0 a6 3e 1d a9 4b be dc 3a 6d 3e e0 eb 20 3f
       0.32544062 -0.1988873 0.23166984 0.62859917
000050 4b 75 bd 3e e6 16 ed bd ff 20 0e be 66 fa 62 3d
       0.3700355 -0.11576633 -0.13879775 0.05541458
000060 65 8f 09 be a0 c2 1b bc f4 58 4d bd f1 2b 8a bd
       -0.13433607 -0.009506851 -0.05013366 -0.067466624
000070 6d af 0f be c9 b6 a8 be 19 50 8f 3e 24 25 10 bd
       -0.14031763 -0.32951954 0.27990797 -0.03519167
000080 93 d6 ec 3d bc c5 0a bd e6 3c e9 bc d6 1c 9b 3e
       0.11564364 -0.03387998 -0.028471421 0.30295438
000090 0d 55 f9 be 53 02 b7 3e 3f 40 18 be ce 12 5d be
       -0.486977 0.3574396 -0.14868258 -0.21589205
0000a0 bd 50 ee 3d 79 6f 99 be fe 55 d9 be c5 80 36 bd
       0.11636493 -0.2996786 -0.4244842 -0.044556398
0000b0 78 90 f9 3d 7a d3 81 3e f2 47 8f 3e da a9 02 3e
       0.12185758 0.25356656 0.27984577 0.12760106
0000c0 72 3c c7 be 0f 14 08 3f 22 49 c2 bd b0 76 5d bd
       -0.38913304 0.53155607 -0.09486605 -0.054068267
0000d0 71 15 03 3e 52 44 52 3e ac d7 43 bd 67 7b e0 3d
       0.12801148 0.20533875 -0.047813103 0.10961037
0000e0 5d 34 a9 be c3 de 9a be 60 45 96 3b b0 ef 6e bc
       -0.33047763 -0.3024808 0.004585907 -0.014583513
0000f0 36 54 a6 be 64 1c 2f be 17 82 bf 3e ea 8e 99 3d
       -0.32486123 -0.17100674 0.37403938 0.07497962
000100 5f 61 63 3d 20 7c f7 3a 1b d2 77 3c d0 5c dc bd
       0.055512782 0.0018881597 0.015125777 -0.1075989
000110 92 65 31 be 3c ff 0e 3d ab 18 af bc b6 f7 f0 be
       -0.17323902 0.03491138 -0.021374067 -0.47063988
000120 40 5d a1 3e 54 d0 49 bd 61 84 b4 3e 86 df 97 3e
       0.31516457 -0.049270943 0.35257247 0.29662722
000130 8d 0a 0b be 7a 22 94 be 71 ee 9d 3e 66 76 f0 be
       -0.13578244 -0.28932554 0.3084598 -0.4696533
000140 8e fe 9a 3e 0e 63 b6 3d 1c ae a2 be 10 e3 99 3e
       0.30272335 0.08905612 -0.3177346 0.30056047
000150 aa 97 50 be da 75 3b 3e 96 2b d0 3e dc 6e 25 bc
       -0.20370355 0.18306676 0.40658253 -0.010097232
000160 a2 fe 4c be fd ee 89 be f4 38 f8 3e f1 a5 22 be
       -0.2001901 -0.26940146 0.48480952 -0.15883614
000170 ac 8a df bc d5 b9 8b bd ad c6 97 be 9e 92 4d 3d
       -0.027287804 -0.06822554 -0.29643765 0.050188653
000180 66 9c 29 3e 75 86 df 3e 6c 93 3f 3e f8 66 4f 3e
       0.16563568 0.4365727 0.1870858 0.20254123
000190 0b 28 cf bd 7a 6c 95 3d 88 cc 85 3e 71 33 a0 bd
       -0.101150595 0.07296081 0.26132607 -0.07822312
0001a0 85 e5 0c be df 27 25 3f 00 e7 78 3b ee 3a 0e 3e
       -0.1375943 0.64513963 0.0037979484 0.13889667
0001b0 b8 86 07 be 1a 91 b1 3e b5 73 10 3e 25 e8 7d bd
       -0.13234985 0.34681016 0.14106639 -0.06198897
0001c0 5d 0e 28 bd e4 7d 48 bd 8f 8c 63 be 0e 0e 99 3d
       -0.041029323 -0.048948184 -0.22221588 0.07473384
0001d0 fa 2d d4 be 04 3a 1b bd ae 98 4b 3d 70 8b 0d 3f
       -0.41441327 -0.037897125 0.049706154 0.5529089
0001e0 60 c6 ea bd be fe 4a 3e 40 f6 e0 bd 52 2d b4 3e
       -0.11463618 0.19823739 -0.109844685 0.35190827
0001f0 c5 ef 8a 3e 20 c8 cc be a3 28 11 3e 20 ac 07 be
       0.27136055 -0.39996433 0.14175658 -0.13249254
